logs/rsl_rl/h1v2_flat/2025-03-05_11-22-28/exported/policy.onnx (onnx, 195410 bytes, 8 tensors)

actor.0.weight f4 [128, 93]
0	0xbecf4f5f	-0.40490243
1	0xbf2fb288	-0.6863179
2	0xbd865000	-0.065582275
3	0x3e8a8c56	0.27060193
4	0x3e8524a4	0.26004517
5	0xbdd82c0e	-0.10555278
6	0x3eca3e83	0.39500818
7	0xbee51a5e	-0.4474668
8	0x3e3e425a	0.18579999
9	0x3dd5ec1c	0.10445425
10	0xbd5b683d	-0.053566206
11	0xbdc7fece	-0.09765397
12	0x3da1d296	0.07901494
13	0x3b731aa5	0.0037094739
14	0x3e4b8980	0.19876671
15	0x3d5c2a2d	0.05375116
16	0xbdda61e3	-0.10663202
17	0xbe3d09fc	-0.1846084
18	0xbdc3ad80	-0.09554577
19	0x3cfefac1	0.031125428
20	0x3f26fbad	0.65227777
21	0x3d07390d	0.033013392
22	0xbd94ecc8	-0.07271725
23	0xbccb8e61	-0.024848165
24	0x3e0bd481	0.13655283
25	0x3e2bc27e	0.16773412
26	0xbe90d0c9	-0.2828429
27	0xbe165b26	-0.14683208
28	0xbc48c10b	-0.012253056
29	0x3d7a490e	0.061104827
30	0xbe7889a1	-0.24271251
31	0x3d9993ef	0.07498919
32	0xbf777b7c	-0.966728
33	0x3dbb39c2	0.09141876
34	0x3e386568	0.18007433
35	0x3d71b44f	0.059009846
36	0xbdb269cb	-0.08711585
37	0xbdf1554a	-0.11783846
38	0xbdfb79f0	-0.12279117
39	0xbdcd4600	-0.10023117
40	0x3da8aa90	0.08235657
41	0xbd3bf52e	-0.04588812
42	0xbcf13209	-0.029442804
43	0x3d0fc53d	0.03510021
44	0x3d212c2a	0.03934876
45	0x3d38fd25	0.045163292
46	0xbca07597	-0.019587321
47	0x3d0b3618	0.033987135
48	0xbb9daed3	-0.0048121004
49	0xbd59f65d	-0.053213466
50	0x3d394357	0.045230236
51	0x3e03f38d	0.12885876
52	0xbcb4760e	-0.02202895
53	0xbbc941c5	-0.0061418735
54	0x3ccf084e	0.025272515
55	0xbd234cb9	-0.03986809
56	0x3dcdebbb	0.10054728
57	0x3c381d98	0.011237524
58	0x3b9572e6	0.004560816
59	0xbd3f095d	-0.04663979
60	0x3c891ad8	0.016736433
61	0x3d04bd07	0.032406833
62	0x3d4d58f4	0.05013366
63	0xbc31ae25	-0.010844742
64	0xbdd27a89	-0.10277278
65	0x3cdcdc41	0.026960494
66	0xbe2003e7	-0.15626489
67	0xbd262c93	-0.040569853
68	0xbbc3dead	-0.0059774728
69	0xbe1b5c37	-0.15171896
70	0xbb689b0a	-0.00354928
71	0xbe17070d	-0.14748783
72	0x3cb6ed11	0.022329839
73	0xbb7c3404	-0.0038483152
74	0xbc229850	-0.009924009
75	0x3ca60965	0.020268152
76	0xbd9f47eb	-0.07777389
77	0x3e23595e	0.1595206
78	0xbe001231	-0.1250694
79	0x3dda7c08	0.10668188
80	0xbe6f7080	-0.23382759
81	0xbe315293	-0.17316656
82	0xbc4af950	-0.012388542
83	0x3e41d1aa	0.18927637
84	0x3e0281eb	0.12744872
85	0xbdf50c8d	-0.119652845
86	0x3e2fc6c4	0.17165667
87	0x3cc8df00	0.024520397
88	0xbd1382a0	-0.036013246
89	0xbdb7017d	-0.08935831
90	0xbd471f99	-0.04861412
91	0x3cdde2fc	0.027085774
92	0x3d1c103b	0.038101416
93	0xbf0b8084	-0.54492974
94	0x3c3230b4	0.01087587
95	0xbeaf25be	-0.34208483
96	0x3e68d17f	0.22736166
97	0xbe16217f	-0.14661215
98	0xbdb8a18c	-0.090151876
99	0xbef0a4d4	-0.47000754
100	0xbe816d03	-0.25278482
101	0x3e4d1d27	0.20030652
102	0x3d22c7ba	0.039741255
103	0x3cb930dc	0.022606306
104	0xbe975b5d	-0.29561892
105	0x3d83e0bc	0.06439349
106	0x3e3ca0ca	0.18420711
107	0x3e172c46	0.14762983
108	0x3d467bfb	0.04845808
109	0xbed94735	-0.4243714
110	0x3e920902	0.28522497
111	0xbe30bc06	-0.17259225
112	0xbd85e82a	-0.065384224
113	0x3e24f9bf	0.16110896
114	0xbe2e2309	-0.17005552
115	0x3e8c4947	0.27399656
116	0xbe5f13ee	-0.21784946
117	0xbf0a1bc9	-0.53948647
118	0xbebbd2a7	-0.36684152
119	0x3d1104dd	0.03540503
120	0x3eee2ad0	0.46517038
121	0x3f1c3ab0	0.6102705
122	0xbdd1e400	-0.10248566
123	0x3dca82ca	0.09888227
124	0xbe6d8e4e	-0.23198816
125	0xbe671bf1	-0.22569253
126	0xbe6ac280	-0.22925758
127	0xbe58de8b	-0.21178643
128	0xbea46c6d	-0.32113972
129	0x3d42bcc5	0.047543306
130	0x3d89d0b1	0.06729258
131	0xbdbe22bd	-0.092839696
132	0x3df82dbf	0.121181004
133	0xbd6b4fe8	-0.05744925
134	0x3d187f14	0.037230566
135	0x3be19efd	0.006885408
136	0xbd6db457	-0.058033314
137	0x3d885044	0.066559345
138	0x3de083c8	0.10962635
139	0xbd76d4c6	-0.06026151
140	0xbd399970	-0.045312345
141	0xbd43548b	-0.04768805
142	0x3d98a046	0.07452445
143	0x3cc99dc7	0.024611367
144	0x3d587070	0.052841604
145	0x3d9b224d	0.07574902
146	0xbd72b020	-0.059249997
147	0x3d60edbf	0.054914232
148	0x3e221bf6	0.15830979
149	0x3d5c8987	0.053842094
150	0xbc888a7e	-0.0166676
151	0xbcf2b0f8	-0.0296254
152	0x3e1afcf0	0.1513555
153	0xbd0459d7	-0.03231224
154	0xbd3bbfa7	-0.04583707
155	0xbca654b0	-0.020304054
156	0x3d66c753	0.056342434
157	0xbcc8c7b8	-0.024509296
158	0xbd29f6ac	-0.04149501
159	0x3d6b73a1	0.05748332
160	0x3ddaeedc	0.1069009
161	0x3d2e54d3	0.042561363
162	0x3db59e0d	0.088680364
163	0x3d5568cf	0.052101906
164	0x3d6b761c	0.057485685
165	0x3db72516	0.089426205
166	0xbd81870d	-0.06324587
167	0x3e741055	0.23834355
168	0x3d9dde07	0.07708364
169	0xb93f314a	-0.00018233541
170	0xbe858724	-0.26079667
171	0xbbcd45d8	-0.0062644295
172	0xbcfdbeff	-0.030974863
173	0xbd12d0cb	-0.03584365
174	0xbdcc684b	-0.0998083
175	0xbe2999ba	-0.16562548
176	0xbc01e34b	-0.007927726
177	0x3df4dd96	0.11956327
178	0xbd68e330	-0.056857288
179	0xbe59c3e8	-0.21266139
180	0xbc4f8efd	-0.012668368
181	0xbe30e2b1	-0.17273976
182	0xbd634278	-0.05548331
183	0x3daf8fff	0.08572387
184	0x3d9227c9	0.07136495
185	0xbc043e74	-0.008071531
186	0xbe0434f6	-0.12910828
187	0xbead3bec	-0.3383478
188	0xbecd07dc	-0.4004506
189	0x3eab8216	0.33497685
190	0x3e895b4b	0.26827464
191	0xbe234572	-0.1594446
192	0x3f072c69	0.5280214
193	0xbefae369	-0.49001625
194	0x3e80e831	0.25177148
195	0xbf15c26b	-0.58499783
196	0xbd8bbcec	-0.06823143
197	0xbe93bc2f	-0.2885451
198	0xbe572b1a	-0.21012536
199	0x3ef6fc84	0.4823953
200	0x3eaf2cfb	0.34214005
201	0xbed6ffc6	-0.41992015
202	0xbefff155	-0.4998881
203	0xbea17fce	-0.3154282
204	0x3c9fb472	0.019495223
205	0xbe00a08f	-0.12561248
206	0x3e831b27	0.25606653
207	0xbecd705b	-0.40124783
208	0xbeb49c07	-0.3527529
209	0xbe125551	-0.14290358
210	0x3d693639	0.056936476
211	0xbd8ad3d7	-0.067786865
212	0xbd190919	-0.03736219
213	0xbda0838b	-0.0783759
214	0x3e0ddd32	0.1385391
215	0xbe001e5e	-0.12511584
216	0xbd54d917	-0.051964846
217	0xbdbac1a8	-0.09118968
218	0xbf2230b9	-0.63355595
219	0x3e15a17f	0.14612387
220	0x3e614b50	0.22001386
221	0x3d671864	0.056419745
222	0x3e1ad9ca	0.15122142
223	0xbe0886d0	-0.13332677
224	0xbe797280	-0.24360085
225	0xbd8fc29d	-0.070195414
226	0x3c95c7aa	0.018283684
227	0x3d218d9a	0.039441682
228	0xbd0b7eb2	-0.034056373
229	0xbd11db39	-0.035609458
230	0x3c17a9de	0.009256808
231	0xbd0c9d31	-0.034329597
232	0xbc7adf9d	-0.015312103
233	0xbc68e2ca	-0.014214227
234	0xbd3ddacf	-0.04635125
235	0xbd6994a6	-0.057026528
236	0x3cf77c19	0.030210542
237	0x3dd812fb	0.10550495
238	0xbda2b014	-0.079437405
239	0xbd90a1df	-0.070621245
240	0xbd5b9101	-0.053605083
241	0x3d41a02d	0.047271896
242	0x3d27044f	0.040775593
243	0x3d96188e	0.07328902
244	0xbca646ae	-0.020297375
245	0x3dd8060a	0.10548027
246	0x3c85d043	0.016334658
247	0x3b4f83ac	0.0031664176
248	0x3d049292	0.032366343
249	0xbcb86d55	-0.022513071
250	0x3d56fcdf	0.05248725
251	0xbd798951	-0.06092197
252	0xbe211fcf	-0.1573479
253	0x3ec15122	0.37757212
254	0x3d891300	0.06693077
255	0xbc951388	-0.01819779

actor.0.bias f4 [128]
0	0xbddef5de	-0.10886739
1	0xbe3d9d14	-0.18516952
2	0xbe313304	-0.17304617
3	0x3e1b5177	0.15167795
4	0xbda59dca	-0.080867365
5	0x3ce2a2f3	0.02766559
6	0xbe371b99	-0.17881621
7	0xbdd6e79b	-0.10493394
8	0xbe1544db	-0.14577048
9	0xbbae0fa8	-0.005311925
10	0x3da203cc	0.079108804
11	0x3d31931d	0.04335319
12	0xbe074163	-0.13208537
13	0x3df7456c	0.12073788
14	0xbde359b3	-0.11101093
15	0x3d432394	0.04764135
16	0x3d54be66	0.05193939
17	0xbd294ed0	-0.041334927
18	0x3d938c31	0.07204474
19	0x3e507cff	0.20360182
20	0xbafa38d7	-0.0019090426
21	0xbd91c0cf	-0.071168534
22	0xbc207a7e	-0.009794829
23	0x3d80134c	0.062536806
24	0xbe36c2fa	-0.17847815
25	0x3dd45f74	0.10369769
26	0xbcc4693b	-0.023975959
27	0x3d0e6029	0.034759674
28	0x3d8df1e7	0.06930905
29	0xbde8b00e	-0.11361705
30	0xbde190bd	-0.11013935
31	0xbe1eb228	-0.15497649
32	0x3d750699	0.059820745
33	0xbe3a22b8	-0.18177307
34	0xbd45cf3e	-0.048293345
35	0xbdba3048	-0.0909124
36	0xbdc44eaa	-0.095853165
37	0xbdc23aa2	-0.094838396
38	0xbde5b95a	-0.11216994
39	0x3bdbf1ae	0.00671216
40	0xbce21ef7	-0.027602656
41	0xbde50923	-0.11183383
42	0x3e0f08a0	0.13968134
43	0xbe3fb662	-0.18721917
44	0xbdb24df8	-0.087062776
45	0x3d8d4ab2	0.068990126
46	0xbd0b93ea	-0.03407661
47	0x3dc6a55d	0.09699509
48	0xbd73728c	-0.059435412
49	0x3c12f78d	0.0089701535
50	0xbe51fd49	-0.20506777
51	0xbe2c602a	-0.16833559
52	0xbe82b47b	-0.2552832
53	0xbdbfb5af	-0.09360825
54	0x3e32d530	0.17464137
55	0xbdb8cb46	-0.09023146
56	0xbde422c1	-0.11139441
57	0x3e21a13f	0.15784167
58	0xbd927d66	-0.07152824
59	0xbd2d94cd	-0.042378236
60	0xbe05cd2b	-0.13066547
61	0xbd34fb73	-0.044185113
62	0x3db6e4dc	0.0893037
63	0xbe620f4c	-0.22076148
64	0xbe1cdf04	-0.15319449
65	0xbd9243e2	-0.07141854
66	0xbe057e9b	-0.13036577
67	0xbe16b271	-0.14716507
68	0xbd0065ab	-0.031346958
69	0x3d2501f2	0.04028506
70	0xbd810fd6	-0.063018486
71	0xbdf2091e	-0.11818145
72	0xbd5c2248	-0.05374363
73	0xbd84415a	-0.06457777
74	0xbcf82494	-0.03029088
75	0xbdda1ab0	-0.106496215
76	0xbbdcff90	-0.0067443326
77	0xbddc1e82	-0.107480064
78	0xbe106e41	-0.14104559
79	0xbddf05e1	-0.10889793
80	0xbddca05d	-0.10772774
81	0xbe29cabe	-0.16581246
82	0x3d312d8b	0.043256324
83	0x3d50831d	0.05090629
84	0x3d752c4c	0.059856698
85	0xbd8fdbb6	-0.070243284
86	0xbce79614	-0.028269805
87	0x3d79b0bd	0.060959566
88	0xbe45fae4	-0.19333988
89	0x3c65a72e	0.0140169095
90	0xbe0fe486	-0.14052019
91	0xbe3d3de7	-0.18480645
92	0xbd2ef38c	-0.042712733
93	0xbe1f34f9	-0.15547551
94	0xbe21e182	-0.1580868
95	0x3d591f73	0.053008508
96	0xbe0a5685	-0.13509567
97	0xbc8a6c58	-0.016897365
98	0x3d93c5e4	0.07215479
99	0xbc0ffa60	-0.008787721
100	0xbe57d881	-0.21078683
101	0x3def6044	0.11688283
102	0xbe434209	-0.19068159
103	0x3d726ab0	0.059183776
104	0x3b99d0ce	0.004694081
105	0xbce86074	-0.028366305
106	0xbd15fbbd	-0.03661703
107	0x3ca24e47	0.019812716
108	0x3daf387d	0.08555696
109	0xbe22582e	-0.1585395
110	0xbdb1e2b8	-0.08685821
111	0xbdc5114d	-0.096224405
112	0xbd0a4751	-0.03375942
113	0xbe0be2e8	-0.13660777
114	0xbc791364	-0.015202377
115	0x3cd2e010	0.025741607
116	0xbd0865ea	-0.033300318
117	0xbd6796e3	-0.05654038
118	0xbda3ebd4	-0.08003965
119	0xbd03e36c	-0.03219931
120	0xbbe0e682	-0.006863416
121	0xbdc813c5	-0.09769396
122	0xbd6e9269	-0.058245096
123	0xbbe8a68f	-0.0070999335
124	0xbe126b91	-0.14298846
125	0x3dced47e	0.100991234
126	0xbda79f40	-0.081846714
127	0xbc0d0ade	-0.008608548

actor.2.weight f4 [128, 128]
0	0xbd801344	-0.062536746
1	0xbd0b6baa	-0.034038223
2	0x3d8f8bef	0.07009112
3	0xbe1ce373	-0.1532114
4	0xbd869cdd	-0.06572888
5	0x3ce8ee19	0.028433846
6	0x3d194565	0.037419695
7	0x3d207638	0.039175242
8	0xbb80e053	-0.0039329915
9	0xbd01f0ff	-0.031723972
10	0x3db91b30	0.09038389
11	0x3c9da29b	0.019242575
12	0xbcc8dae3	-0.024518436
13	0x3d07a515	0.03311642
14	0x3da25945	0.07927183
15	0xbd52ef1d	-0.051497567
16	0x3d70fbbd	0.058833826
17	0xbd4a354b	-0.04936723
18	0xbd6bbb27	-0.05755153
19	0xbdb37380	-0.08762264
20	0x3d45e53a	0.04831431
21	0x3d089515	0.0333453
22	0x3c3d224f	0.011543824
23	0xbdabfa41	-0.083973415
24	0xbc760e40	-0.015018046
25	0xbd3241ea	-0.04351989
26	0x3c62f7b0	0.013852999
27	0x3d6d58be	0.05794596
28	0x3d5b18fc	0.053490624
29	0xbe17b11c	-0.14813656
30	0xbde6b8e6	-0.11265735
31	0xbdbfcc97	-0.09365194
32	0xbd3a6234	-0.04550381
33	0x3e03da9b	0.1287636
34	0x3d381772	0.044944234
35	0xbda9df19	-0.082945056
36	0x3c819917	0.01582007
37	0xbd61a02b	-0.05508439
38	0x3cd28191	0.025696548
39	0xbd3b7373	-0.045764398
40	0xbdf872de	-0.12131284
41	0xbd83ef59	-0.06442136
42	0xbdfed1dc	-0.12442371
43	0x3dd4ea27	0.103962235
44	0xbd923fcb	-0.07141074
45	0xbae8e76d	-0.0017769166
46	0xbdaebd47	-0.085321955
47	0xbdedcfc6	-0.11611895
48	0x3d0b4022	0.03399671
49	0xbe1e3b5f	-0.15452336
50	0x3ca4edde	0.020132955
51	0xbcd1be01	-0.025603296
52	0xbda7ce46	-0.081936404
53	0x3dcc4131	0.09973372
54	0x3d751704	0.059836403
55	0x3e1ec0d3	0.15503244
56	0x3d86daae	0.065846786
57	0x3d7563c2	0.05990959
58	0xbe0a63d4	-0.13514644
59	0xbd0d0f81	-0.034438614
60	0x3d8de4cd	0.06928406
61	0xbda70679	-0.081555314
62	0x3c83f9c6	0.016110312
63	0x3d1b7f90	0.03796345
64	0xbcc55a5d	-0.02409094
65	0xbd87e29e	-0.06635021
66	0x3c191291	0.0093428055
67	0x3d9db56e	0.077006206
68	0x3d22d249	0.039751325
69	0xbb0548de	-0.0020337622
70	0x3dbc898e	0.09205924
71	0x3d6e3bc1	0.058162455
72	0xbd8cea79	-0.068806596
73	0x3ce96af3	0.02849338
74	0x3c7c2d3c	0.015391644
75	0xbd93d2b5	-0.072179236
76	0x3d168512	0.036748
77	0x3d722d96	0.059125505
78	0x3c8c1426	0.017099451
79	0x3da7e642	0.08198215
80	0xbd8735fc	-0.066020936
81	0xbdf71d17	-0.12066095
82	0x3d20c610	0.039251387
83	0xbd31c5d7	-0.043401565
84	0xbd564317	-0.052310076
85	0x3b89ddbc	0.004207341
86	0x3d898d5b	0.067164145
87	0xbce7c3b6	-0.028291564
88	0xbd0aa345	-0.033847112
89	0xbd2421de	-0.04007136
90	0x3d339e34	0.043852046
91	0x3cdb416d	0.026764596
92	0xbc27891f	-0.010225563
93	0xbc93ef3b	-0.01805841
94	0x3d84f70b	0.06492432
95	0xbc869013	-0.016426122
96	0xbd819d7b	-0.06328865
97	0xbdac6fb1	-0.08419741
98	0xbe027825	-0.12741144
99	0xbdf97160	-0.12179828
100	0x3d9a0bcb	0.075217806
101	0xbdb782f8	-0.08960527
102	0x3cea9b67	0.028638555
103	0x3d00dd8a	0.031461276
104	0x3d179f1a	0.037016965
105	0x3cb8213b	0.022476783
106	0x3ce073b3	0.02739892
107	0x3e3d93fc	0.18513483
108	0xbd88dd37	-0.066828184
109	0xbdb313a5	-0.08743981
110	0xbd6c3fc1	-0.057677988
111	0x3bff4bf4	0.0077910367
112	0xbcd279e6	-0.025692891
113	0xbaf53eea	-0.0018710766
114	0x3da5b4cd	0.08091126
115	0xbdd0b8c5	-0.10191492
116	0xbd2dc081	-0.042419914
117	0x3dea333a	0.11435552
118	0x3c06f9c8	0.008238263
119	0xbe310f4b	-0.1729099
120	0x3c970a11	0.018437417
121	0x3d648d59	0.055798862
122	0xbdbf2f4a	-0.093351915
123	0x3d764ef1	0.06013388
124	0xbddd2b07	-0.107992224
125	0xbcfd4fea	-0.030921895
126	0xbcd63f87	-0.02615334
127	0xbdd742c6	-0.10510783
128	0xbe1d3499	-0.15352096
129	0xbcfd3e2e	-0.030913439
130	0xbe2c694e	-0.16837046
131	0xbecc5b04	-0.3991319
132	0xbdfe218e	-0.12408744
133	0xbe975226	-0.29554862
134	0xbccd3355	-0.025048891
135	0x3db3e696	0.08784215
136	0x3e617c90	0.22020173
137	0xbdee075a	-0.11622496
138	0xbe4c23b5	-0.19935496
139	0xbe0643e7	-0.1311184
140	0xbd98db2c	-0.07463679
141	0xbd83ffc7	-0.0644527
142	0x3c3f8d54	0.01169141
143	0xbd9ab5c4	-0.075542
144	0x3d4d747c	0.050159916
145	0x3de1d183	0.11026289
146	0xbda0c676	-0.078503534
147	0xbe58e232	-0.21180037
148	0x3d03231c	0.032015905
149	0x3cc35f2d	0.023849094
150	0xbe5dba1a	-0.21653023
151	0xbe2ade8b	-0.16686456
152	0x3d6e7a08	0.058221847
153	0x3d30559d	0.043050397
154	0xbe17a199	-0.14807738
155	0x3da3177b	0.07963463
156	0x3d5cc277	0.053896394
157	0xbd94dafd	-0.07268331
158	0x3e14964d	0.1451046
159	0xbe1bef9d	-0.15228124
160	0x3c241771	0.0100153545
161	0x3e0af4d5	0.13569959
162	0xbde4043b	-0.111336194
163	0x3d6fbda2	0.058530457
164	0x3d3c82ce	0.046023183
165	0x3dedfdb2	0.11620654
166	0xbd4a5494	-0.049397066
167	0xbce8e00a	-0.028427143
168	0x3dbd7c93	0.09252276
169	0x3d4c462f	0.04987162
170	0xbdae9a05	-0.08525471
171	0x3e0efee0	0.13964415
172	0xbdb10a7b	-0.08644577
173	0xbd11617a	-0.03549335
174	0xbe0af532	-0.13570097
175	0x3dbc55af	0.0919603
176	0xbe387b01	-0.18015672
177	0xbd8babc0	-0.06819868
178	0x3e1fba4c	0.1559841
179	0xbbdb90a6	-0.006700593
180	0x3d8970c4	0.067109615
181	0xbe1bac61	-0.15202476
182	0xbdcdf3e7	-0.10056286
183	0xbd2fc7f6	-0.042915307
184	0xbd0c918a	-0.034318484
185	0xbd0f8ee8	-0.035048395
186	0xbdf0843d	-0.117439725
187	0xbc5a25dd	-0.013314691
188	0x3e4c5150	0.19952893
189	0x3ce5df50	0.028060585
190	0xbd262d05	-0.040570278
191	0x3e404be0	0.18778944
192	0x3e7fe43c	0.24989408
193	0xbe919f6a	-0.28441936
194	0xbdac846d	-0.08423696
195	0xbc9c7520	-0.019098818
196	0xbe1aff05	-0.15136345
197	0xbde41e37	-0.111385755
198	0xbc77b75f	-0.015119403
199	0xbdf9f4cb	-0.12204894
200	0xbd7d519e	-0.061845414
201	0xbde6df01	-0.11273003
202	0x3dc63631	0.09678305
203	0xbe100988	-0.14066136
204	0x3c8c8b57	0.017156286
205	0x3cf6e5c4	0.030138858
206	0x3e8e0dc6	0.27744883
207	0xbe4423bf	-0.19154261
208	0xbe32917f	-0.17438315
209	0x3dc5eb7e	0.09664057
210	0xbdc3e056	-0.09564273
211	0xbe04adcb	-0.12956922
212	0x3d4ea3e0	0.050449252
213	0x3d8aa4b1	0.06769694
214	0x3e0b40ef	0.13598989
215	0x3d523aae	0.051325493
216	0x3e07b46d	0.1325242
217	0x3d9f8eb8	0.07790893
218	0xbd29cf60	-0.041457534
219	0x3e2da75e	0.16958377
220	0xbc63fdbb	-0.0139154745
221	0x3d8827a4	0.06648186
222	0x3e3a2d4e	0.18181345
223	0xbe3b5842	-0.18295386
224	0xbbf84c4c	-0.0075774547
225	0x3e804805	0.25054947
226	0xbdaa370a	-0.08311279
227	0xbe80c68a	-0.25151473
228	0x3d8f7061	0.070038565
229	0xbdc23f78	-0.09484762
230	0x3db5e37d	0.088812806
231	0xbe8423fe	-0.2580871
232	0xbe0ce91f	-0.13760804
233	0x3e2b504e	0.16729853
234	0x3ce5bc41	0.028043868
235	0xbed02bfc	-0.40658557
236	0xbd3ddccd	-0.04635315
237	0xbe6a2297	-0.22864757
238	0xbc8c03ee	-0.017091718
239	0x3bb38cbc	0.0054794233
240	0xbdbcc78f	-0.0921775
241	0xbd596ec5	-0.053084154
242	0x3d4ad347	0.049517896
243	0xbb34b159	-0.0027571528
244	0xbd80001a	-0.06250019
245	0x3d79400b	0.06085209
246	0xbde2844f	-0.11060392
247	0xbdaf7665	-0.08567504
248	0xbe453a82	-0.192606
249	0x3d08127f	0.033220764
250	0xbda02b2c	-0.078207344
251	0xbe138653	-0.1440671
252	0x3d295340	0.04133916
253	0xbd167a3b	-0.03673766
254	0xbe2ad5aa	-0.16683069
255	0xbda38716	-0.0798475

actor.2.bias f4 [128]
0	0xbe3f0bb5	-0.1865681
1	0xbe12961c	-0.14315075
2	0x3d087bc9	0.033321176
3	0x3d399fa1	0.04531825
4	0xbce8ea0a	-0.028431911
5	0xbd5a4f07	-0.053298023
6	0xbc8a7494	-0.016901292
7	0xbe824cfb	-0.25449356
8	0x3dd9d307	0.106359534
9	0xbe4586e7	-0.19289742
10	0x3d077082	0.03306628
11	0xbdb88350	-0.09009421
12	0xbe185283	-0.14875226
13	0x3cacccb2	0.0210937
14	0xbda725d2	-0.081615105
15	0x3bbcd6e2	0.0057629207
16	0xbcb35767	-0.021892263
17	0x3d283af4	0.041071847
18	0x3cfbd124	0.030739374
19	0xbe59a879	-0.21255673
20	0x3d6a9cbe	0.057278387
21	0xbd953aab	-0.07286581
22	0x3cf8838d	0.030336166
23	0xbd768089	-0.060181174
24	0xbe13eea3	-0.14446501
25	0xbc2d3842	-0.010572495
26	0xbc5c0ccc	-0.013430785
27	0x3d3fe276	0.04684683
28	0x3d5e1d68	0.054227263
29	0x3cbd2da1	0.023093047
30	0xbd5a9e2f	-0.053373512
31	0xbd73f8b9	-0.059563372
32	0x3da12a07	0.07869344
33	0xbdf8eef0	-0.12154949
34	0x3d7b37a3	0.061332356
35	0x3abd6672	0.0014450087
36	0xbe149890	-0.14511323
37	0xbdadc898	-0.08485526
38	0xbd9dadbe	-0.07699154
39	0x3b3cde9b	0.0028819207
40	0xbd7a4af3	-0.061106633
41	0xbda7973c	-0.081831425
42	0xbdce1fc8	-0.100646555
43	0xbd32c3f9	-0.043643925
44	0xbe3e1a0f	-0.18564628
45	0x3d0b44a0	0.034000993
46	0x3e234a89	0.15946402
47	0xbdb1d28c	-0.08682737
48	0x3c140b5f	0.009035914
49	0xbd04cf7b	-0.03242443
50	0xbd3b8140	-0.04577756
51	0xbe3fb5c0	-0.18721676
52	0xbd6632d6	-0.056200825
53	0xbdb79877	-0.08964627
54	0xbe07b2a7	-0.13251744
55	0xbd846878	-0.06465238
56	0x3bc2d9b3	0.005946362
57	0xbbcd1187	-0.006258193
58	0x3db35019	0.08755512
59	0xbd0a1c94	-0.03371866
60	0xbe4a5511	-0.19759013
61	0xbe24c4d7	-0.16090713
62	0xbdba20ac	-0.09088263
63	0x3c18eddb	0.009334053
64	0x3d87ff1e	0.066404566
65	0xbcede7e2	-0.029041234
66	0xbda3c352	-0.07996239
67	0xbd80b0ca	-0.0628372
68	0x3e50a189	0.20374121
69	0xbe8094e1	-0.25113586
70	0x3ce33fe4	0.027740426
71	0x3c3ceef6	0.011531582
72	0xbe2ff9d8	-0.17185152
73	0x3d4273e7	0.047473814
74	0x3e0291e8	0.12750971
75	0xbc2aac7a	-0.010417098
76	0x3dcef843	0.10105946
77	0xbe30d038	-0.17266929
78	0xbd74419b	-0.05963288
79	0x3db5e3de	0.08881353
80	0xbdcb396f	-0.09923064
81	0x3c87f556	0.016596477
82	0xbddac790	-0.10682595
83	0xbe028681	-0.12746622
84	0x3ddd8f19	0.10818309
85	0x3b0b766a	0.0021280297
86	0xbd089b44	-0.033351198
87	0xbe1aa9ea	-0.1510388
88	0xbe093af4	-0.13401395
89	0xbd8684d2	-0.06568302
90	0xbe445ec0	-0.1917677
91	0xbdc1fa1b	-0.09471532
92	0x3e1fccee	0.15605518
93	0x3db0d209	0.08633811
94	0xbb2e60d9	-0.0026608019
95	0xbda2139d	-0.07913897
96	0xbe173bd1	-0.14768912
97	0xbe3da34d	-0.18519326
98	0xbe4abc21	-0.19798328
99	0xbc9f57e1	-0.019451084
100	0xbe004aff	-0.12528609
101	0xbdbd15fe	-0.0923271
102	0xbe6bf5d3	-0.23042993
103	0xbdf776cd	-0.12083206
104	0xbbd000bd	-0.0063477443
105	0x3ca5bb0d	0.020230794
106	0xbcd415dc	-0.02588933
107	0xbe1174d4	-0.14204723
108	0xbdff06e8	-0.12452489
109	0x3d3f3dda	0.046689846
110	0xbd80c0d0	-0.06286776
111	0x3d0601a0	0.032716393
112	0x3c00f4ff	0.007870912
113	0xbd3567a9	-0.04428831
114	0x3cf4cc5d	0.029882604
115	0xbd46d153	-0.04853947
116	0x3c2bfe63	0.010497662
117	0xbd6ff16a	-0.05857984
118	0xbdd99e52	-0.106259
119	0xbe2f0adc	-0.17093986
120	0xbdf80c96	-0.121117756
121	0x3d855c8a	0.06511791
122	0x3cc3d3e6	0.023904752
123	0x3d712e6e	0.05888217
124	0xbe2d8dab	-0.16948573
125	0xbe5b7236	-0.21430287
126	0x3e216684	0.15761763
127	0xbdd681a0	-0.10473943

actor.4.weight f4 [128, 128]
0	0xbd9c8fb5	-0.076445974
1	0xbd5e3456	-0.05424913
2	0xbc6730d4	-0.014110763
3	0x3dc1b2ab	0.09457906
4	0xbcb8ec7a	-0.022573698
5	0xbb6b0599	-0.003586149
6	0x3d749f39	0.05972216
7	0xbcd02bf8	-0.025411591
8	0xbc2b6fa6	-0.010463631
9	0xbd2f1edc	-0.04275404
10	0xbd848e43	-0.06472447
11	0xbd517772	-0.051139303
12	0x3d9c2204	0.076236755
13	0x3dd23b24	0.102651864
14	0x3d95d083	0.07315161
15	0x3dff79fe	0.1247444
16	0xbd80dcc9	-0.062921114
17	0x3d8e3dfe	0.06945418
18	0x3c1293cb	0.008946369
19	0x3da3c568	0.07996637
20	0x3d93ebb2	0.0722269
21	0xbd544f94	-0.051833704
22	0xbe0e997e	-0.1392574
23	0xbc52700f	-0.0128441
24	0xbcac9cbf	-0.021070836
25	0xbdf73525	-0.120706834
26	0xbca124e5	-0.019670913
27	0x3c7aa488	0.015298016
28	0xbd4d3182	-0.050096042
29	0xbdb94e81	-0.090481766
30	0x3ae1a2f7	0.0017214705
31	0xbd8dc0f8	-0.069215715
32	0xbc3c096b	-0.011476855
33	0x3de8c7e1	0.11366249
34	0x3dadb285	0.084813155
35	0xbc92133f	-0.017831443
36	0xbd2a4bd8	-0.041576236
37	0x3d720f36	0.059096538
38	0x3dd0b3d0	0.101905465
39	0x3c61f424	0.013791118
40	0xbc8be2f4	-0.017075993
41	0xbd86635a	-0.065619186
42	0xbe169f63	-0.14709239
43	0xbd2b4bf8	-0.041820496
44	0xbc8be1f7	-0.017075522
45	0xbd84f2a2	-0.06491591
46	0x3d76a5c3	0.060216676
47	0xbdaf61b3	-0.085635565
48	0xbccf9745	-0.025340686
49	0x3bb842b8	0.005623188
50	0xbd4c2a6b	-0.04984514
51	0x3cc4d442	0.024026994
52	0x3d49c274	0.04925771
53	0x3d9fdc56	0.078056976
54	0xbc15638c	-0.009117972
55	0x3b09652a	0.002096484
56	0x3d215e2f	0.03939646
57	0xbd322223	-0.043489587
58	0xbd6d37a4	-0.05791439
59	0x3b1d633f	0.0024015454
60	0x3d084d7b	0.033277016
61	0xbc24f073	-0.010067093
62	0xbd40490b	-0.04694466
63	0x3cd10595	0.025515357
64	0xbdb31bd9	-0.08745546
65	0x3c642691	0.013925211
66	0x3e075980	0.13217735
67	0x3dcf25aa	0.10114606
68	0xbd7eae84	-0.06217815
69	0x3db3b160	0.08774066
70	0x3dd52737	0.1040787
71	0x3d8295b0	0.06376207
72	0x3ce9619d	0.028488928
73	0x3dc5849d	0.096444346
74	0x3e2f7b35	0.17136844
75	0xbdbc732c	-0.09201655
76	0xbe048dd8	-0.12944734
77	0xbd3e1dc6	-0.046415113
78	0xbe33a1ef	-0.17542242
79	0x3dbab7ab	0.09117063
80	0x3bce791e	0.0063010594
81	0xbdf8e5c6	-0.12153201
82	0x3da54970	0.08070648
83	0xbd04f9f5	-0.03246494
84	0x3bb0fea2	0.0054014483
85	0x3e13871a	0.14407006
86	0x3b91660f	0.004437215
87	0xbda6a166	-0.08136253
88	0x3c9122f9	0.017716872
89	0xbdb2b2ff	-0.08725547
90	0x3e00abe5	0.12565573
91	0x3d1be7df	0.038062926
92	0xbd5b9021	-0.05360425
93	0x3b0e8479	0.002174644
94	0xbd90ca5e	-0.070698485
95	0x3c864175	0.016388634
96	0xbddec4df	-0.10877394
97	0x3d44bfe3	0.04803456
98	0x3df97ebd	0.121823765
99	0x3b8911d3	0.004183033
100	0x3dc24c2d	0.094871856
101	0xbdd67911	-0.1047231
102	0x3de5da5e	0.11223291
103	0xbbf2109d	-0.0073872344
104	0x3a1b2e61	0.0005919692
105	0x3db6449f	0.08899807
106	0xbd9e973d	-0.0774369
107	0x3c732e61	0.014842601
108	0xbb8a2cc3	-0.004216762
109	0x3c0e385d	0.00868043
110	0x3ca5abc6	0.02022351
111	0x3c81dbcb	0.015851876
112	0xbccfa17b	-0.025345555
113	0x3c81b8b6	0.015835147
114	0x3d23b48b	0.0399671
115	0xbd42ed73	-0.04758973
116	0xbc91e5b9	-0.017809736
117	0xbda98974	-0.0827817
118	0xbd75d613	-0.06001861
119	0x3b988202	0.00465417
120	0x3de2f05a	0.11081
121	0xbd1b4220	-0.03790486
122	0xbd852b46	-0.065023944
123	0x3da54162	0.080691114
124	0x3d0f4dc0	0.034986258
125	0x3d3af6a7	0.045645382
126	0xbcad3a4b	-0.02114596
127	0x3ca7699a	0.020436097
128	0xbdb0273f	-0.086012356
129	0x3dc044fe	0.09388159
130	0xbb50e405	-0.0031874191
131	0x3dbd8555	0.09253947
132	0x3daad5c4	0.08341554
133	0x3cf5ca9e	0.030003842
134	0x3dbc8416	0.09204881
135	0xbd567cfe	-0.052365296
136	0x3c6e5a54	0.014547903
137	0x3d136650	0.035986245
138	0x3bf48fed	0.0074634464
139	0xbd6e00d1	-0.058106247
140	0xbd8c0b19	-0.06838054
141	0xbdfd0fc5	-0.123565234
142	0xbd2b14ce	-0.041767888
143	0x3c7dd543	0.01549274
144	0xbd23bee0	-0.039976954
145	0xbd566b5a	-0.052348472
146	0xbcb514f5	-0.02210472
147	0xbdddbafd	-0.10826681
148	0x3d69d903	0.057091724
149	0x3d914826	0.07093839
150	0x3d6cd103	0.057816517
151	0x3db8c8dc	0.09022686
152	0xbdb40b92	-0.08791269
153	0x3d18a113	0.037262987
154	0x3c39d558	0.011342369
155	0x3d2358e8	0.03987971
156	0xbc0b6e1c	-0.008510139
157	0xba1f9d0b	-0.000608877
158	0xbd02fa02	-0.031976707
159	0x3e11f2ec	0.14252824
160	0xbad412cf	-0.0016179922
161	0xbda80085	-0.08203224
162	0xbd6ae7d8	-0.05735001
163	0x3ce6e216	0.028183978
164	0xbdc0d0b4	-0.09414807
165	0xbdd154bf	-0.10221242
166	0x3d08842f	0.033329185
167	0x3d9da36a	0.076971844
168	0xbd588378	-0.052859753
169	0xbd61b7a7	-0.055106785
170	0xbc453f58	-0.012039028
171	0xbdb00ce6	-0.0859621
172	0xbd638257	-0.055544224
173	0xbdd2e026	-0.10296659
174	0x3d39315e	0.045213096
175	0x3bf67195	0.0075208643
176	0x3db71f83	0.08941557
177	0x3da25d19	0.07927913
178	0x3d440b48	0.04786232
179	0x3d63fb1d	0.055659402
180	0x3df0c41e	0.117561564
181	0x3e38c55a	0.18044034
182	0xbd056e8b	-0.032576125
183	0xbbe3354a	-0.006933843
184	0xbc0ee4bc	-0.008721527
185	0xbc0797f7	-0.008275977
186	0x3cdba648	0.026812688
187	0xbd06d9f5	-0.032922704
188	0xbcd72bfe	-0.026266094
189	0xbdb6f0e6	-0.089326665
190	0x3d6eddb9	0.05831692
191	0x3d1d717e	0.038438313
192	0x3dd88f12	0.105741635
193	0x3d6212ba	0.05519364
194	0x3cba5a02	0.022747997
195	0x3c4b516e	0.012409551
196	0x3d399aca	0.045313634
197	0x3d04e08f	0.03244072
198	0x3c0df642	0.0086646695
199	0xbdb75b77	-0.089529924
200	0xbcb5fb0e	-0.022214439
201	0x3c82dbc6	0.015973937
202	0xbe1404db	-0.14454977
203	0xbce9d0ff	-0.02854204
204	0xbb8fae91	-0.0043848236
205	0xbc88efb3	-0.01671586
206	0x3c6465e6	0.01394031
207	0xbd97aaee	-0.07405649
208	0x3e09cdfd	0.13457485
209	0xbd380b27	-0.04493251
210	0x3dc0a3d2	0.09406246
211	0xbd18fc5b	-0.03735004
212	0xbdef5a6f	-0.11687171
213	0xbd79b635	-0.06096478
214	0xbd82522e	-0.06363331
215	0x3bab86f9	0.005234596
216	0x3c6d1370	0.014469966
217	0xbe1ba838	-0.15200889
218	0xbc471a03	-0.012152198
219	0xbdc54fc3	-0.09634354
220	0xbd8045e4	-0.062633306
221	0xbcf4a654	-0.029864468
222	0xbd1562d7	-0.036471214
223	0xbcfa0ea3	-0.030524557
224	0x3dd41591	0.10355676
225	0xbd4a14cc	-0.04933624
226	0x3df6f744	0.12058881
227	0xbe0c8f57	-0.13726555
228	0xbcf1199a	-0.029431153
229	0x3c83f5b0	0.016108364
230	0xbe0a0933	-0.13480072
231	0xbc03c3a0	-0.008042246
232	0x3e104e31	0.14092328
233	0xbe2d7451	-0.16938902
234	0xbd93c646	-0.07215552
235	0xbe2d204f	-0.16906856
236	0xbd0c94f1	-0.03432173
237	0x3cfd47e8	0.030918077
238	0xbdab8a05	-0.083759345
239	0xbe2aad89	-0.16667761
240	0x3e6036d8	0.21895921
241	0x3dcd15e3	0.1001394
242	0xbdd31f3a	-0.1030869
243	0x3d8191b7	0.06326621
244	0xbcbcf41e	-0.023065623
245	0xbd02f592	-0.031972475
246	0x3d546deb	0.05186264
247	0x3d3ad29e	0.045611016
248	0x3e193e86	0.14965257
249	0xbdf29a84	-0.11845878
250	0xbd1ade9d	-0.037809957
251	0xbd7c19ee	-0.061548166
252	0xbd8bcf4b	-0.06826647
253	0x3e0a141e	0.13484237
254	0x3d61b513	0.055104326
255	0xbcd56fc4	-0.02605427

actor.4.bias f4 [128]
0	0xbe125d03	-0.14293294
1	0xbe030a8f	-0.12796997
2	0xbd39fa01	-0.045404438
3	0x3d431537	0.047627654
4	0x3ad0f219	0.0015941291
5	0xbe265545	-0.16243465
6	0xbd1d5256	-0.0384086
7	0xbe057d10	-0.13035989
8	0x3d1a2833	0.037635993
9	0xbe64e64c	-0.22353476
10	0xbd328b53	-0.0435899
11	0x3da18aba	0.07887788
12	0xbe6d9bed	-0.23204012
13	0xbd164107	-0.03668311
14	0x3e0912c0	0.13386059
15	0x3ca0f9db	0.01965039
16	0x3bef6c81	0.007306636
17	0xbc493bda	-0.012282336
18	0x3c236f26	0.00997523
19	0xbdd81db6	-0.10552542
20	0xbd34d0b1	-0.044144336
21	0xbd2c4def	-0.04206651
22	0xbb11a542	-0.0022223745
23	0xbdab6476	-0.08368771
24	0xbc531996	-0.012884518
25	0xbe46ec09	-0.19425978
26	0xbdd76980	-0.105181694
27	0xbd8b5fac	-0.06805357
28	0xbd794c97	-0.060864057
29	0x3da8c66e	0.082409725
30	0xbde69357	-0.112585716
31	0xbcac287e	-0.021015402
32	0xbe202269	-0.15638126
33	0x3c99470d	0.018710637
34	0x3c8cf676	0.017207365
35	0xbe25939f	-0.16169594
36	0xbcb9a308	-0.022660747
37	0xbd5dbc82	-0.054134853
38	0xbdfbd998	-0.12297362
39	0xbe4d79f9	-0.2006606
40	0xbcab6c26	-0.020925593
41	0x3ddb8973	0.10719576
42	0xbc62928d	-0.013828886
43	0xbd7ae42b	-0.061252754
44	0x3d42386e	0.047417097
45	0xbdb9cf89	-0.09072787
46	0x3e23642a	0.15956178
47	0x3db74295	0.089482464
48	0xbd26ee98	-0.040754884
49	0xbe0dabb7	-0.13835035
50	0x3d77ee05	0.060529727
51	0xbd5deb9e	-0.05417978
52	0x3d9e7a40	0.07738161
53	0xbe34690b	-0.17618196
54	0xbe3d26c5	-0.1847182
55	0xbcddc03e	-0.027069207
56	0xbe1d8e2d	-0.15386267
57	0xbe269dd5	-0.16271146
58	0x3d9a5de5	0.0753744
59	0xbdbcbd47	-0.09215789
60	0xbcee15fb	-0.029063215
61	0xbe04aeab	-0.12957256
62	0xbd422bce	-0.047405057
63	0x3b7a4964	0.0038190717
64	0xbde6061e	-0.112316355
65	0x3c9a3966	0.018826198
66	0xbe39b9bc	-0.18137258
67	0xbcd2b80d	-0.025722528
68	0xbe03ea21	-0.12882282
69	0xbde9dac9	-0.11418683
70	0xbd4deb6f	-0.050273355
71	0x3d4ab354	0.049487427
72	0xbc9e827b	-0.019349327
73	0xbc2dd8d0	-0.010610774
74	0xbe21782b	-0.15768497
75	0xbdb06f32	-0.08614959
76	0x3b86ba3b	0.004111556
77	0x3e0501e5	0.12989004
78	0xbdc109ee	-0.09425722
79	0x3c99f89b	0.018795302
80	0xbded5348	-0.1158815
81	0xbe400dd2	-0.18755272
82	0xbdb42013	-0.0879518
83	0x3ca09f2c	0.019607149
84	0x3d2369d2	0.03989584
85	0x3d1c6973	0.0381865
86	0xbdc13ee6	-0.09435825
87	0xbde8e6b0	-0.11372125
88	0xbd9dcec2	-0.077054515
89	0xbd87a5c2	-0.06623413
90	0x3c5009aa	0.012697617
91	0xbd7f9a5e	-0.062403075
92	0x3d9918cb	0.07475432
93	0xbdf3bd0f	-0.119012944
94	0xbe0fdc92	-0.14048985
95	0x3c00971b	0.007848526
96	0xbdadc32d	-0.084844925
97	0xbe7c464c	-0.24636191
98	0x3c042985	0.00806654
99	0xbe1c1ab0	-0.15244555
100	0xbe168f8f	-0.14703201
101	0xbe0d0a92	-0.13773564
102	0xbe03fbd6	-0.12889037
103	0xbc813821	-0.015773835
104	0xbe16fd08	-0.14744961
105	0x3da2f8a9	0.079575844
106	0x3cbf6c9e	0.023367222
107	0x3db5204a	0.08844049
108	0x3b3e2b6a	0.0029017576
109	0xbc3a55cb	-0.011372994
110	0xbbad658e	-0.0052916473
111	0xbdb6aa38	-0.089191854
112	0xbd93078b	-0.07179173
113	0xbc97ef1b	-0.018546632
114	0xbe53bcc6	-0.2067748
115	0xbdb47746	-0.08811812
116	0xbbf0dda8	-0.0073506422
117	0x3d705227	0.058672097
118	0xbe6fcde9	-0.23418392
119	0x3d42521c	0.047441587
120	0xbd84da91	-0.06487001
121	0xbd8ee7eb	-0.069778286
122	0xbda7655c	-0.0817363
123	0xbe483283	-0.19550519
124	0xbdccbdd7	-0.099971466
125	0xbd5b94f2	-0.053608842
126	0x3da5f2cf	0.08102953
127	0xbb9f9220	-0.0048697144

actor.6.weight f4 [27, 128]
0	0x3d45107e	0.04811143
1	0x3d2e4a56	0.04255136
2	0x3c033ed5	0.008010586
3	0x3b1110c3	0.0022135235
4	0xbcc6d715	-0.024272481
5	0x3d94b8ed	0.07261834
6	0x3c292b66	0.010325288
7	0x3d6a67ca	0.057227887
8	0xbcc1bc2d	-0.0236493
9	0x3e2bdc18	0.16783178
10	0xbd70b7cd	-0.058769036
11	0xbdac7307	-0.08420377
12	0x3cb4321c	0.02199655
13	0xbd93fd78	-0.0722608
14	0xbcb052b4	-0.02152381
15	0xbc968b20	-0.018376887
16	0xbc698920	-0.014253885
17	0xbd9fc7c0	-0.07801771
18	0x3c497bc6	0.012297576
19	0x3b1e103f	0.002411857
20	0xb865edee	-5.4819444e-05
21	0xbd55f13d	-0.052232016
22	0xbdfd65e0	-0.12372947
23	0xbc562d33	-0.0130723
24	0xbd8aa703	-0.06770136
25	0x3dfe8110	0.124269605
26	0x3da3bf3f	0.07995462
27	0x3dd21081	0.10257054
28	0xbe0343a5	-0.12818773
29	0xbdf8d060	-0.121491194
30	0x3d9ecd09	0.07753951
31	0x3cc869d5	0.024464527
32	0x3d96a53a	0.07355733
33	0xbd6ceeb2	-0.057844825
34	0xbd48aa7c	-0.04899071
35	0x3cf2f194	0.029656209
36	0xbcfcc00b	-0.030853292
37	0x3d99fb35	0.07518617
38	0x3d39b970	0.045342863
39	0x3e3e623c	0.18592161
40	0xbcdf2eec	-0.027244054
41	0xbcf71d4b	-0.030165335
42	0xbd0b78bd	-0.034050692
43	0x3d354137	0.044251647
44	0xbdd26c87	-0.10274606
45	0x3d929243	0.071568035
46	0xbd66fd79	-0.056394074
47	0xbd98c3b9	-0.07459206
48	0xbd5842a7	-0.05279794
49	0x3cff0e1c	0.031134658
50	0xbc68155c	-0.014165249
51	0xbbd3b66a	-0.0064609544
52	0xbd2b39cd	-0.04180317
53	0x3deab467	0.1146019
54	0x3da5ad21	0.08089662
55	0x3d1db2c3	0.03850056
56	0x3dd61938	0.10454029
57	0x3dc645a3	0.09681251
58	0xbdae34e4	-0.08506182
59	0xbd58537f	-0.052814003
60	0x3dd2773c	0.102766484
61	0x3d258ec2	0.040419348
62	0xbd88d0fa	-0.06680484
63	0xbd827489	-0.063698836
64	0x3cc63b25	0.024198124
65	0x3ce57b33	0.028012848
66	0x3c1d90d7	0.009617052
67	0x3a16ae61	0.00057480304
68	0xbd8fb8e1	-0.07017685
69	0xbd835ed3	-0.06414571
70	0x3d2a20a5	0.04153504
71	0x3d3bbb11	0.045832697
72	0xbc93889b	-0.018009475
73	0xbd8e74f0	-0.06955898
74	0x3d03767d	0.03209542
75	0x3cf63351	0.030053766
76	0x3c0e1201	0.008671285
77	0xbe1536cd	-0.14571686
78	0x3d8a7124	0.06759861
79	0xbd5ea78e	-0.05435901
80	0xbd2a644c	-0.041599557
81	0x3e2261ef	0.15857671
82	0xbd11b77b	-0.03557537
83	0xbdbaf5e8	-0.09128934
84	0x3b92b396	0.0044769747
85	0x3ce23222	0.027611796
86	0xbd084c5b	-0.033275943
87	0x3cadf2da	0.021233965
88	0xbdef0d15	-0.11672417
89	0x3ca6ee19	0.020377206
90	0xbd84c332	-0.06482543
91	0x3d89f03e	0.06735276
92	0xbc896502	-0.016771797
93	0x3c948bea	0.018133122
94	0xbc94c771	-0.018161507
95	0xbd24f808	-0.040275604
96	0xbd684580	-0.056706905
97	0x3e6e2693	0.23256902
98	0xbc9a3bb6	-0.0188273
99	0x3d81dc45	0.06340841
100	0x3ce47f1f	0.027892647
101	0xbd4eabab	-0.050456684
102	0xbc8369a4	-0.016041584
103	0x3d3e8467	0.046512987
104	0xbda6a203	-0.0813637
105	0xbdd78cd9	-0.105249114
106	0x3c3c98da	0.011511052
107	0xbc0ec67d	-0.0087143155
108	0x3db36b7a	0.08760734
109	0xbccbad0b	-0.024862787
110	0x3d54ed8c	0.051984355
111	0x3d2ade42	0.041715868
112	0xbd080444	-0.033207193
113	0xbd988a1a	-0.07448216
114	0x3d37b479	0.044849847
115	0x3da3ce6c	0.07998356
116	0xbd1b2148	-0.037873536
117	0xbd70843d	-0.058719862
118	0x3df327f1	0.118728526
119	0xbcac1958	-0.021008179
120	0xbd26ec8f	-0.040752944
121	0x3c8dc1d0	0.017304331
122	0x3d704856	0.058662735
123	0xbca4233a	-0.020036329
124	0xbd3e32ad	-0.046435047
125	0x3c1d7937	0.009611419
126	0xbb83d114	-0.004022727
127	0xbcae7441	-0.021295669
128	0xbd00baf0	-0.031428277
129	0x3beecdd7	0.0072877216
130	0xbce4238f	-0.027848987
131	0xbdba03f2	-0.09082784
132	0xbcbb364f	-0.022853045
133	0xbd46ca02	-0.048532493
134	0x3b0d1518	0.0021527465
135	0xbdb3753b	-0.08762594
136	0x3cf7875b	0.03021591
137	0xbddb1c8b	-0.106988035
138	0x3c9f03b1	0.01941094
139	0x3da79da7	0.08184367
140	0xbe119d05	-0.14220054
141	0x3dea897e	0.11452006
142	0x3d91e1b8	0.071231306
143	0x3d03b402	0.03215409
144	0xbba8143e	-0.005129366
145	0x3d0b9004	0.03407289
146	0x3cec685b	0.028858354
147	0xbc6ec025	-0.014572178
148	0x3b876806	0.0041322736
149	0xbd3fadc9	-0.046796594
150	0x3b188118	0.0023270305
151	0xbdc916bd	-0.0981879
152	0x3da3ee59	0.080044456
153	0xbdefb9d1	-0.117053635
154	0xbb77ae3f	-0.0037793068
155	0xbd6ca460	-0.057773948
156	0x3d43056a	0.047612585
157	0x3d484f17	0.04890355
158	0xbe006b3f	-0.12540911
159	0x3d10819c	0.035279855
160	0xbdbbb1c0	-0.091647625
161	0x3d40455c	0.046941146
162	0x3d5f38c4	0.054497495
163	0x3d07c6dc	0.03314863
164	0xbc2cce54	-0.010547239
165	0x3c87b447	0.016565455
166	0xbd9a5a73	-0.07536783
167	0xbe0aa96e	-0.13541195
168	0xbc691ddd	-0.014228311
169	0xbc73bf23	-0.0148771135
170	0xbd20240d	-0.03909688
171	0xbded3924	-0.11583164
172	0x3d717cde	0.058956973
173	0xbc2ff9b2	-0.010740684
174	0x3e0023f0	0.12513709
175	0x3c38164a	0.011235783
176	0x3c8b7c07	0.017026914
177	0xbd3c7aff	-0.046015736
178	0xbbaecfcd	-0.0053348304
179	0x3ae0c555	0.0017148653
180	0x3baa4a8a	0.005196874
181	0xbd8cd352	-0.06876244
182	0xbd67e79e	-0.05661737
183	0xbd055bcd	-0.03255825
184	0xbc2db7aa	-0.010602871
185	0xbe0a47aa	-0.135039
186	0x3d5d63a4	0.054050103
187	0x3c8d7072	0.017265532
188	0x3c87a1fc	0.016556732
189	0xbd5ea17b	-0.05435322
190	0x3d989c86	0.074517295
191	0x3de8de18	0.11370486
192	0x3bb9c896	0.0056696637
193	0x3d6982e0	0.057009578
194	0xbde1058e	-0.109873876
195	0xbc0d7d5a	-0.008635843
196	0xbd924d32	-0.0714363
197	0x3da871e7	0.0822485
198	0xbdaaba4a	-0.08336313
199	0x3d4f8c26	0.050670765
200	0x3bba2de3	0.0056817397
201	0xb86c9747	-5.6407673e-05
202	0x3be706b4	0.0070503596
203	0xbd8ffbe0	-0.07030463
204	0x3d23adcd	0.03996067
205	0x3d0a11f7	0.03370854
206	0x3baa6f5d	0.005201264
207	0xbb8023fd	-0.00391054
208	0x3d269aec	0.04067509
209	0xbdf37af3	-0.11888685
210	0x3d2d2a3c	0.042276606
211	0xbc43dc05	-0.011954312
212	0xbcdd092d	-0.026981914
213	0xbd6f55d7	-0.058431473
214	0x3d071343	0.032977354
215	0xbd39b74f	-0.045340832
216	0x3d06ac85	0.03287937
217	0xbd1ee06f	-0.038788255
218	0x3d01638b	0.031589072
219	0xbc972062	-0.018448059
220	0x3cac31ef	0.021019904
221	0xbe0440f6	-0.12915406
222	0xbd22f8a8	-0.03978792
223	0xbbd6f07c	-0.0065594297
224	0xbc4ae1e8	-0.012382962
225	0xbe01e0a3	-0.12683348
226	0xbdbbc6e0	-0.09168792
227	0xbd55dccf	-0.052212533
228	0xbccefb89	-0.025266426
229	0x3ceba030	0.028762907
230	0x3cd7f2b9	0.026360856
231	0xbd00d30a	-0.031451263
232	0x3bc4d46f	0.0060067694
233	0x3d2dc62a	0.042425312
234	0xbd4b7be2	-0.04967869
235	0x3d7be198	0.06149444
236	0xbd9ecf1f	-0.07754349
237	0x3d70f5f5	0.058828313
238	0xbc765d86	-0.015036946
239	0xbcc50b49	-0.024053233
240	0x3d98df22	0.07464434
241	0xbab793f9	-0.0014005891
242	0xbd9e8c4d	-0.07741604
243	0xbdaa9757	-0.08329647
244	0xbd391032	-0.04518146
245	0xbb08708e	-0.002081904
246	0xbe06ea9b	-0.13175432
247	0x3ce607de	0.028079923
248	0x3d5c2567	0.053746607
249	0x3cacc5d2	0.021090422
250	0xbc293444	-0.0103274025
251	0xbd12f6df	-0.035879966
252	0x3cd9c663	0.026583856
253	0xbc80c876	-0.015720587
254	0x3d5eeba2	0.054423936
255	0x3ca2ff3a	0.019897092

actor.6.bias f4 [27]
0	0xbe88f049	-0.26745823
1	0x3e18cc21	0.14921619
2	0xbd62a5b4	-0.055333808
3	0xbdd503ab	-0.1040109
4	0x3d268847	0.040657308
5	0xbe041534	-0.12898713
6	0xba1c11e7	-0.00059535954
7	0x3db799ed	0.08964906
8	0xbdcb2381	-0.09918881
9	0xbd425f96	-0.04745444
10	0x3e040d99	0.12895812
11	0xbdacec0c	-0.0844346
12	0xbd0250f4	-0.031815484
13	0xbdcd269a	-0.10017128
14	0x3dd207cd	0.10255394
15	0x3d8baa86	0.06819634
16	0xbd4d79f2	-0.050165124
17	0xbd1faca8	-0.038983017
18	0xbcc4bca7	-0.024015738
19	0xbcb5791b	-0.022152474
20	0x3d599af9	0.05312631
21	0x3dcb60e2	0.09930588
22	0xbd09b00a	-0.03361515
23	0xbc009dee	-0.007850153
24	0xbcac39a6	-0.021023583
25	0x3d682e05	0.056684513
26	0x3ce10d8f	0.027472286
