logs/rsl_rl/h1v2_flat/2025-03-07_11-30-10/exported/policy.onnx (onnx, 195410 bytes, 8 tensors)

actor.0.weight f4 [128, 93]
000000 04 53 5b bd 26 9d 9a be 4a 88 09 3f 49 86 d2 be
       -0.053545967 -0.3019802 0.53723586 -0.41118076
000010 65 c2 77 3e ca 91 b8 3c f7 66 1f bf c5 d8 b9 3e
       0.2419525 0.022530455 -0.62266487 0.36298195
000020 c2 1e 47 3e 96 34 94 be 3d 68 5b bd 5f ce 78 3d
       0.19445327 -0.2894637 -0.053566206 0.060743686
000030 d0 0d f7 be 2a 5c d3 be 45 62 0d bf 42 0d b6 3e
       -0.48252726 -0.41281253 -0.5522807 0.3555699
000040 72 ae a6 3d 74 bf 83 3f f3 07 ea 3e e8 53 9d 3d
       0.081387416 1.0292802 0.4570919 0.076820195
000050 47 1f c8 be 64 ba 2f 3f 56 47 1f 3e 34 6f c3 3e
       -0.39086363 0.68643785 0.15554556 0.3817078
000060 c5 1f a9 be 8e ab 7e bf 0c 99 3c 3f d0 a5 15 3f
       -0.3303205 -0.9948052 0.7367103 0.58456135
000070 16 46 9c 3f 85 b4 0d 3f df 30 2c bf 26 db 4e be
       1.2208889 0.55353576 -0.6726207 -0.20200786
000080 0f 3c 3d 3e 85 97 75 bf 4f e2 88 3f 82 fe 18 3f
       0.18479942 -0.95934325 1.0694064 0.5976335
000090 45 04 9f 3e 0c d1 0d 3f 06 8b 9a be 08 6e f0 3b
       0.31057945 0.55397105 -0.3018419 0.0073373355
0000a0 7c af b0 3c 8f a4 b3 bd 69 ca 8e 3c 7d 7f 07 3e
       0.021568052 -0.087716214 0.017430501 0.13232227
0000b0 ba 0a d4 3d 47 38 f6 3b ce aa c9 3b a3 d0 29 bd
       0.103536084 0.007514033 0.0061543947 -0.041458737
0000c0 0d ec 64 3c fd a0 4f 3d 00 cc 25 be 4c ff 2e bd
       0.0139722945 0.05069064 -0.16191101 -0.04272394
0000d0 7a e6 cd 3d a2 14 f3 3c 9e d7 11 bc 63 42 d2 bd
       0.100537255 0.029672924 -0.008901505 -0.102665685
0000e0 31 98 36 bd f8 aa 44 bd b9 16 09 3c 5a 8f 86 3d
       -0.044578735 -0.04801461 0.008367234 0.06570311
0000f0 dd 57 a1 3c a4 0f 1c 3d b8 f2 49 bd d3 0b 1f 3b
       0.019695217 0.038100854 -0.04930374 0.0024268522
000100 90 9b f8 bc ee 9f ae 3c e1 01 dd 3c 72 56 89 be
       -0.030347615 0.021316495 0.026978435 -0.26823765
000110 f4 4c d6 be 54 a4 86 be e4 c1 c4 ba 2c ce 20 be
       -0.41855586 -0.26297247 -0.0015011397 -0.15703648
000120 2b ae b0 bd 2d 3f 93 bd 9e 6d dd 3d 2a ae 69 bd
       -0.0862697 -0.07189784 0.108119234 -0.05705086
000130 15 31 82 bd c1 2e 15 bc ee 3c 3d bc ca 5f dc 3c
       -0.06357018 -0.009105385 -0.011550171 0.026901145
000140 fd 52 2a bd f0 0d d3 3d 52 32 0f 3c 16 e1 94 bc
       -0.04158305 0.10305393 0.008740025 -0.018173736
000150 b1 fc 11 3e 98 0d 7f 3d c9 c7 95 3d 18 96 f5 3d
       0.1425655 0.062268823 0.073134966 0.11991519
000160 9d a8 b8 bc 1d d2 31 3d f1 49 b1 bd 8f 0a 22 3c
       -0.022541339 0.04341327 -0.08656681 0.009890213
000170 26 dd 4d bd b7 22 17 3f 0a 2b 63 3e 2d 54 f8 be
       -0.05025973 0.59037346 0.22184387 -0.4850172
000180 4a 43 fc 3e 2d 2a 96 3e 37 e6 3c be ed cb 4d 3f
       0.49270087 0.29329053 -0.18447195 0.8038929
000190 49 68 5c be 1c 1a 21 3d cd 68 92 3e dc 30 b9 3c
       -0.21524157 0.03933154 0.28595582 0.022606306
0001a0 94 29 92 be 75 c4 fe bd 71 73 f1 be fc dd b3 bf
       -0.28547347 -0.12439815 -0.47158387 -1.4052119
0001b0 11 8a 46 3f 2d c0 53 bd 9d 7b c4 be 50 fe 72 3e
       0.7755442 -0.051696945 -0.3837556 0.23729825
0001c0 1e 1f 37 3e 9d cd 1f 3f 08 9c 79 bf 47 bb 98 3e
       0.17882964 0.62423116 -0.9750371 0.2983038
0001d0 38 a6 88 be fb 94 e8 be ea bb 36 bf f5 be 66 bc
       -0.26689315 -0.45426163 -0.71380484 -0.014083614
0001e0 83 a4 a2 bf 4c 12 9a bf 14 36 56 bf 36 56 88 3e
       -1.2706455 -1.2036834 -0.83676267 0.26628274
0001f0 ea 88 4d 3f c4 2c e2 be b0 5f 88 3f cc 99 5a 3e
       0.8028704 -0.44174778 1.0654202 0.21347731
000200 ee 38 24 3f a1 f4 17 3d 71 a5 43 be 46 a1 0c 3f
       0.6414937 0.03709853 -0.1910608 0.54933584
000210 21 93 6f 3c 6a 42 55 3d c2 dc 22 be c3 55 d0 3d
       0.014622481 0.05206529 -0.15904525 0.10172608
000220 a2 1f 35 3d 8a 38 ca 3b 36 4f 45 3d 2d 87 ce bd
       0.04421962 0.0061712908 0.048171245 -0.100843765
000230 b8 d2 16 bd 5a 67 6f bd a1 89 27 3c cc 38 d3 3c
       -0.03682205 -0.058448173 0.010225684 0.025783919
000240 68 6b 86 bd 98 87 b6 3a af 6e 76 bd 39 49 cd bb
       -0.06563455 0.0013925908 -0.06016415 -0.0062648323
000250 ed 1f ad 3c be 11 04 bc f8 d7 31 bd 36 22 28 3d
       0.021133387 -0.008060871 -0.043418854 0.04104825
000260 7d de 4c 3c 04 72 2e bd ff 0a 97 3c 56 e5 22 3d
       0.012504217 -0.042589203 0.01843786 0.039769493
000270 eb 45 a9 bc 18 69 24 bd 39 0e 85 bd 74 da c0 be
       -0.020663222 -0.040139288 -0.064968534 -0.37666667
000280 d7 8e f4 bd 38 9d 1e bf c1 51 ae bc 47 5c 94 bd
       -0.11941307 -0.61958647 -0.021279218 -0.07244163
000290 e3 6c 83 bd fb 51 11 be 5b e3 ab bc 19 66 58 be
       -0.06417253 -0.1419143 -0.020982435 -0.21132697
0002a0 65 3f 87 3d 92 50 d2 bd 0c 91 16 bd 17 e9 ea 3c
       0.066038884 -0.10269274 -0.03675942 0.028675599
0002b0 29 9c 76 3d 82 25 03 3e 1e 8b 64 3e 52 2e 5b bd
       0.06020752 0.12807277 0.22318694 -0.05351097
0002c0 d6 d2 a9 3d d5 f3 2d 3d 66 a1 b0 3b 7c d8 bd bd
       0.08292167 0.042468864 0.005390334 -0.09269807
0002d0 d1 00 67 bc 3e 55 11 3d 82 d8 b2 3c d0 70 f5 bb
       -0.014099316 0.035481684 0.021831755 -0.007490255
0002e0 8e 86 97 3c 69 5e 5c 3d f5 92 9c be 20 fe 1e bf
       0.018496778 0.053800974 -0.3058087 -0.62106514
0002f0 53 b6 97 bd 8f c7 b6 3e 23 5f 9e 3c d9 2f fb bd
       -0.074078225 0.35699126 0.019332474 -0.122649856
000300 c0 6d 01 bf bb ee 4a bf 2e a1 7e 3e 78 90 f4 bd
       -0.5055809 -0.79270524 0.24866173 -0.11941618
000310 ec bc 8b bd 41 04 25 be 77 df eb be 99 30 9a be
       -0.06823143 -0.16114904 -0.46068928 -0.30115202
000320 3f d4 d9 be e0 16 e7 be 7c b8 32 3e 05 8c 0d bf
       -0.42544743 -0.4513464 0.17453188 -0.5529178
000330 e7 cd aa bd b3 5f b6 be 69 d8 63 3f e5 3b a0 3d
       -0.08340054 -0.35619888 0.8900209 0.07823924
000340 03 f5 1d 3e 37 32 18 be 67 df e6 bb ea 21 9d 3e
       0.15425496 -0.14862905 -0.0070456746 0.30689937
000350 c9 52 85 3e 39 ad 86 3f 75 fd 82 3e 95 03 3d 3f
       0.26039723 1.0521613 0.25583997 0.7383359
000360 76 b6 db 3e 27 df 1a 3e 9d 58 4f bf c6 e6 f8 3e
       0.42912644 0.15124188 -0.8099459 0.48613566
000370 5c 53 0b be 02 8c 7e bc ac 1f 42 3d f0 c6 b4 3f
       -0.13606018 -0.01553631 0.047393486 1.4123211
000380 0f 9f 88 3e ec 66 9e bc 44 87 c8 3d d0 24 f4 3b
       0.26683852 -0.019336186 0.09791425 0.0074506775
000390 b8 05 0d be 44 22 4d 3d 6f 8b 42 bd cb 2c ec bb
       -0.13771713 0.050081506 -0.047496255 -0.007207488
0003a0 eb 26 9a 3d f8 d8 d3 bc 64 69 97 bd 42 c6 87 bb
       0.07526954 -0.025860295 -0.073931485 -0.004143507
0003b0 62 2e 42 3d 13 8b c1 bd 28 1c 92 bd 25 c5 49 bd
       0.047407515 -0.094503544 -0.07134277 -0.049260277
0003c0 0a 96 20 3e b2 ee 0a 3d 89 62 35 3d 35 72 81 b9
       0.15682235 0.033919044 0.044283424 -0.00024689888
0003d0 f8 69 a3 3d 3b c2 5c 3d f6 6f 96 bd 14 4b 30 bd
       0.07979196 0.05389617 -0.073455736 -0.04304035
0003e0 3b 64 a3 3c 95 51 9b bd 29 42 c2 3c 8e d4 84 bd
       0.019945255 -0.0758392 0.023713188 -0.06485854
0003f0 65 22 97 be a7 ea 21 be a1 67 3f be 6c fe 22 bd
       -0.29518428 -0.15812169 -0.18691875 -0.039793417

actor.0.bias f4 [128]
000000 ba d7 42 be e2 a6 97 3c e0 18 59 be 5b cc 10 3d
       -0.19027606 0.018512193 -0.21200895 0.03535114
000010 13 d5 0f be 99 37 cf 3d e3 74 10 bd 2d 48 77 bd
       -0.14046125 0.10118026 -0.03526772 -0.060371567
000020 55 10 72 be 19 02 19 bd e3 c8 c7 3d e4 e8 4d bd
       -0.23639043 -0.037355516 0.09755113 -0.05027093
000030 ae 28 47 be d0 ab b4 3d 65 c0 2b be dd b5 f1 bb
       -0.19449112 0.08821833 -0.16772611 -0.007376416
000040 06 b4 be 3b de 0f 3e be 19 cb 18 3e fe 30 88 3d
       0.0058198003 -0.1856074 0.14921226 0.066499695
000050 57 07 d4 3b 33 17 54 bc cb 21 0e be ff 43 f3 3d
       0.0064706015 -0.012944984 -0.13880078 0.118782036
000060 9b 6f 92 be 82 e1 04 bd a6 66 00 be 80 9c ae bd
       -0.28600773 -0.032441624 -0.12539157 -0.08525944
000070 97 a8 e2 bc 1a 62 88 3c b3 55 eb bd 69 2e 8d bd
       -0.02766828 0.016648341 -0.11490955 -0.06893618
000080 5a 6b 9f bd 35 37 90 be b3 2e 63 be 72 38 aa 3c
       -0.077841476 -0.2816712 -0.22185783 0.020778868
000090 64 c7 ab 3d 4e 08 90 bd 7b f3 29 bd 65 27 03 3e
       0.0838764 -0.07032834 -0.041491967 0.12807997
0000a0 12 56 0b bd 19 10 aa bd 05 a3 33 3e a5 60 a7 bd
       -0.03401763 -0.08303852 0.17542656 -0.0817273
0000b0 b5 21 df bd ce cf 08 3e c1 13 dc bd 2b ba 9f 3d
       -0.10895101 0.13360521 -0.10745955 0.077991806
0000c0 ad bb 30 be 01 3b 87 bc a6 87 66 bc 73 b9 4c be
       -0.17259093 -0.016507627 -0.014070427 -0.19992618
0000d0 64 c6 d6 bd 5d 63 39 be 37 c2 64 3e 4b 2f 92 bd
       -0.10487059 -0.1810431 0.22339712 -0.07137927
0000e0 9f 6d 10 be 7a 58 dc 3d c7 0e 0f be 84 bc 7c be
       -0.14104317 0.10759063 -0.13970481 -0.24681288
0000f0 4e fd cd bd 6d 14 bf bd 8d 06 5c 3e b5 fb 91 be
       -0.1005808 -0.09330068 0.21486874 -0.2851235
000100 c5 07 00 be 4e e0 84 bd 02 97 74 bd 84 ce 6f be
       -0.12502964 -0.06488095 -0.059714325 -0.23418623
000110 f8 d3 68 3d 76 62 d8 bc b8 a7 46 be 79 34 6f be
       0.056842774 -0.026414137 -0.19399917 -0.2335986
000120 f5 7d 59 be 72 21 48 bd 1d cb 68 bd 18 04 94 be
       -0.21239455 -0.04886002 -0.05683433 -0.28909373
000130 db 10 99 bd b0 5c dd be 5e 62 bc bc c8 aa 0a 3c
       -0.07473918 -0.43234777 -0.022996124 0.008463569
000140 28 6c 0b bd 48 e2 53 be 29 f8 0c bd 45 d1 b5 3d
       -0.034038693 -0.20691788 -0.03441635 0.088778056
000150 13 5d fd 3c 07 9b 1c 3e 09 52 c5 bc 94 b7 97 3d
       0.03092817 0.15293513 -0.024086969 0.074080616
000160 d5 cb 83 be 8b f2 42 be c9 9a cc 3d db 04 c0 bd
       -0.2574145 -0.19037835 0.099904604 -0.09375926
000170 33 58 f0 bd fb 5d 1b be 47 fd 4d be 1c d3 78 bd
       -0.11735573 -0.1517257 -0.20116149 -0.060748205
000180 d3 34 b4 be 47 fb fa bd 82 cc 45 3d 7a 0e 2f be
       -0.35196552 -0.122549586 0.048290737 -0.17095366
000190 ee a2 b8 39 79 6b 5b bc 89 b0 01 be 00 9d 08 3e
       0.00035216607 -0.013392323 -0.12664999 0.13341141
0001a0 5e a9 39 3d 7b 20 80 be cf 98 f3 bd 37 b6 a1 bd
       0.045327537 -0.2502478 -0.1189438 -0.07896083
0001b0 45 d3 f9 3d 7a 98 98 be 59 1c 70 3c e8 eb d3 bc
       0.121984996 -0.2980383 0.014655196 -0.025869325
0001c0 34 a5 c7 3d 4b dc 1c be e8 b0 77 be 5f 73 c5 bd
       0.09748307 -0.1531841 -0.24188578 -0.09641146
0001d0 c5 f3 6d be 4d 57 0b bd 8b 63 35 bd c6 38 08 be
       -0.23237522 -0.034018803 -0.044284385 -0.13302907
0001e0 48 9c 14 be b6 ac b8 bd 72 d9 9c 39 41 f8 cf bd
       -0.14512742 -0.09017317 0.00029916648 -0.101547725
0001f0 dd 60 84 be b1 f6 01 3b d6 85 3b bd 04 1d e2 bd
       -0.2585515 0.0019830877 -0.045781933 -0.110406905

actor.2.weight f4 [128, 128]
000000 1e 3e b3 bd 59 de d4 3d 1f 97 3e 3d 8f b3 e4 bd
       -0.08752082 0.10393972 0.04653084 -0.111670606
000010 42 08 f2 bc 4d ff 90 3d 8a 2f e1 bd d5 22 95 bd
       -0.029544953 0.07079945 -0.109953955 -0.07282034
000020 7c d1 12 be 41 49 a3 3d ca be c1 3d 56 71 1e 3e
       -0.14337724 0.079729564 0.09460218 0.15472922
000030 87 e7 8e bd 34 c7 15 3e 47 10 6f bd d4 a5 1c bd
       -0.06977754 0.14626771 -0.058365133 -0.038244084
000040 a4 8d 88 3c 5b 91 02 bc 6d 07 1d be 77 15 63 bc
       0.016669102 -0.007969226 -0.15334864 -0.013860098
000050 bd 86 0c 3e 52 db 51 3d ca fb 30 bb 37 74 9b bd
       0.13723274 0.05123455 -0.0027005547 -0.075905256
000060 c9 52 d9 bd 44 bf 8e 3c dc 4b 13 3e a0 0f b3 3d
       -0.10611493 0.017425187 0.14384407 0.087432146
000070 1d ce 50 bd 68 2c 0a be 8d 32 14 bc 01 fd 70 3c
       -0.050977815 -0.13493502 -0.009045255 0.014708758
000080 f6 e9 18 3e 32 d6 e2 3d 2e 70 0b 3e d2 c2 41 bd
       0.14932999 0.11076011 0.13617012 -0.047304936
000090 4e 9c 45 be 8a da 28 3c dc d6 db bc 63 82 65 3d
       -0.19297907 0.01030601 -0.026835851 0.05603255
0000a0 3c 9a 02 be 52 7a 29 be 55 f2 df bb 39 d6 32 3e
       -0.12754148 -0.16550568 -0.006834308 0.17464532
0000b0 21 25 1b 3c 4f 3a 9f 3d 80 6f fe bd bb b2 36 be
       0.009469301 0.07774793 -0.12423611 -0.17841618
0000c0 27 85 8b be 07 3a a5 bd e9 6f e3 3c cc e9 ad 3b
       -0.27250025 -0.080677085 0.027763324 0.005307412
0000d0 ff 48 1e bd 33 bd 37 bd 17 e4 a2 3d a9 1d f1 3b
       -0.038643833 -0.04485817 0.07953661 0.007358272
0000e0 d2 76 73 3d 8b e2 59 bd 40 ed b4 bd 70 fd 29 3d
       0.059439488 -0.053194564 -0.08834314 0.041501462
0000f0 c2 79 f8 3d a5 68 dc bd 9d b2 fa 3c 0e ae 59 3d
       0.121325985 -0.10762147 0.030602748 0.053144507
000100 c0 5c 74 bd cb af 9a bd 60 3c bf 3d 6b d5 07 bd
       -0.059658766 -0.07553061 0.093376875 -0.033162516
000110 c3 84 c5 bb 49 47 01 be 4f 3f 25 bd 88 b7 08 3d
       -0.0060277893 -0.1262485 -0.04034358 0.033378154
000120 97 8a 4f 3e 08 a8 8b bb a6 fd 0a 3c 59 0b 3c 3d
       0.20267712 -0.0042619742 0.008483326 0.04590926
000130 45 9d c2 3d 8d 56 af bd f3 2f 67 3d 89 8d 18 3e
       0.09502653 -0.0856143 0.056442212 0.14897741
000140 65 6a 1a be b6 67 9d bd 5f cc 2a 3e b5 52 02 3d
       -0.15079649 -0.07685797 0.16679524 0.031817157
000150 7d ec 89 3d a9 05 dc 3d a4 b2 fa 3d 82 73 eb 3d
       0.0673456 0.10743267 0.12241104 0.11496641
000160 dd d3 5f bd dd 05 63 3d 3e e2 a4 3d 6c e5 f6 3c
       -0.054645408 0.055425514 0.08050965 0.030138694
000170 1d b3 1b be 3a 64 fb 3c 4f f2 9f 3a cc 79 ca 3c
       -0.15205045 0.03068744 0.0012202951 0.02471628
000180 fc bc 63 3d c5 9a 55 3d b4 89 19 bd e6 02 83 bd
       0.05560015 0.052149553 -0.03748484 -0.06397037
000190 aa f1 39 3e f0 ef e9 3c 8c f4 0c 3e f5 db 5c be
       0.18158594 0.028556794 0.13765162 -0.21568282
0001a0 35 78 bc 3c 3c a5 4d bd 69 d7 5c be 67 06 e1 3d
       0.023006538 -0.050206408 -0.21566547 0.10987549
0001b0 76 71 89 3c cb a6 19 be 58 9d 26 3e d1 28 b5 3d
       0.016777735 -0.15005033 0.1627096 0.08845676
0001c0 fb 66 a2 bd 5f 7e 6d 3d 47 f3 a5 bc 4f 16 84 bd
       -0.07929798 0.057981845 -0.020257605 -0.064495675
0001d0 f1 9d 07 be e1 40 59 be ea ec 71 3d b3 48 89 bc
       -0.13243844 -0.21216156 0.05906383 -0.016758299
0001e0 ad a3 85 bc 61 ad cc 3d c3 43 e1 bc 77 30 98 3d
       -0.016313398 0.09994007 -0.027498132 0.07431119
0001f0 af 74 15 be fd 50 de 3d 23 66 49 3b 6e 8a 47 be
       -0.14595293 0.10855291 0.0030731044 -0.194864
000200 ff 0c ba 3c 83 80 b0 bd ff 1f b7 3d 3f 9b c2 bd
       0.022711275 -0.08618262 0.0894165 -0.09502267
000210 64 3f 32 bd ee f5 16 3d 46 20 1a 3e 08 5a a1 bd
       -0.043517485 0.03685563 0.15051374 -0.078785
000220 19 63 22 3e 43 cc 0f be 1c 7a 44 be da 84 d5 bd
       0.15858115 -0.14042763 -0.19187206 -0.1042573
000230 c2 d4 71 3d 9f 09 fb 3b 96 c8 25 bd ec c0 45 bd
       0.059040792 0.007661059 -0.040474497 -0.048279688
000240 13 19 da bc 73 11 9a bc b3 27 00 3e 30 e9 18 3d
       -0.026623284 -0.018807149 0.12515144 0.03733176
000250 1f f3 db 3d 60 82 37 be 5d 10 36 3e 24 99 c0 bd
       0.10739731 -0.17920828 0.1777968 -0.09404209
000260 17 ae 03 3d 9e 90 1b 3b 35 87 64 bc cc 65 e4 bc
       0.032148447 0.0023737322 -0.0139482515 -0.027880572
000270 65 3b 7c bd 56 5c af bd 78 1a 25 3c f0 b8 e6 bd
       -0.06158008 -0.085625336 0.010077111 -0.11265743
000280 c8 a2 b4 3b 79 34 ea bd 9f 61 fe 3d 61 40 1e 3d
       0.005512569 -0.114357896 0.124209635 0.038635615
000290 63 11 90 be b1 55 11 3e bc dc ac 3c 98 1a 01 be
       -0.28138265 0.14192845 0.021101348 -0.12607801
0002a0 37 64 a6 3b a9 a2 9f bd ea 49 6d ba 45 61 0b bc
       0.0050778645 -0.07794697 -0.00090518466 -0.008507078
0002b0 4f 70 ef bd 75 49 15 be 9d 56 f1 3c f5 96 96 bd
       -0.11691343 -0.14578803 0.029460246 -0.073530115
0002c0 5d 5c 8d 3d 68 49 2c 3d c9 70 41 3d 4a 98 70 be
       0.069023825 0.042062193 0.0472267 -0.23495594
0002d0 0c ba 4f be 34 69 da 3d c7 20 2b be a7 63 26 3e
       -0.20285815 0.10664597 -0.16711722 0.16248952
0002e0 46 83 f2 3c f3 95 99 bd 7b e5 86 be df 80 00 bd
       0.029603612 -0.07499304 -0.26346955 -0.0313729
0002f0 28 42 1c 3d f9 a8 2a be 46 c7 2b 3d d8 f4 45 3e
       0.03814903 -0.1666602 0.04193809 0.19331682
000300 7e 0e 1f 3d 93 87 02 3e 20 8f 1b be 25 ab 05 bc
       0.03883218 0.1274703 -0.15191317 -0.00815848
000310 fa c0 e3 bc 5e 74 c9 bd 69 02 4a be 6f 43 95 bc
       -0.02780198 -0.098366484 -0.19727482 -0.018220631
000320 b5 69 fc bc 88 ce 0c 3d 9c 5e b6 3d 41 a7 ed bd
       -0.030812124 0.03437665 0.08904764 -0.11604167
000330 e3 66 72 3d 04 e1 09 3e 8e 9b 0e bd 8e c5 99 be
       0.05918015 0.13464743 -0.034816317 -0.30033535
000340 17 35 46 be 94 b5 47 3e f4 1c a6 bc 28 b3 b4 bd
       -0.1935619 0.1950286 -0.020277478 -0.08823234
000350 5b ae 02 3d 60 12 60 be ce 15 a0 bb ac 98 ff 3d
       0.03190456 -0.2188201 -0.004885412 0.12480292
000360 e0 c6 36 3e bb 2f 96 3b ae aa ba bd 9f 32 cb bd
       0.17849302 0.0045833266 -0.09114586 -0.099217646
000370 28 82 ed bd 3b f8 12 3d 2d 23 1c 3e 57 10 ca 3d
       -0.11597091 0.035881262 0.15247793 0.09866398
000380 12 d7 90 3d 65 5f 4a 3d d4 9e 18 bd 3b 7d 83 bd
       0.070722714 0.04940738 -0.037260845 -0.0642037
000390 07 01 64 3d 20 88 fb 3c f8 91 6b bd bd 22 f6 bd
       0.055665042 0.030704558 -0.057512254 -0.120183446
0003a0 51 a9 88 3c e9 99 18 3e 8c a1 2b be df 94 94 3b
       0.016682299 0.14902462 -0.16760844 0.0045343484
0003b0 ab 5e 2a 3c 9f fe 63 3e d5 0d b8 bd 35 87 b8 bd
       0.010398547 0.22265099 -0.08987013 -0.09010164
0003c0 93 3c 9a bc 0c e5 a2 be 66 dd b7 bd 98 6f ce 3c
       -0.018827712 -0.31815374 -0.08977775 0.025199696
0003d0 17 b1 80 be 39 07 c4 3d ab 07 33 3d e9 b7 b9 bd
       -0.2513511 0.0957169 0.043708485 -0.09068281
0003e0 12 6f 98 be 3e 32 80 3d fa 28 0b 3d 9d d2 fe bb
       -0.2977224 0.06259583 0.033974625 -0.007776572
0003f0 c9 59 5d 3d c2 43 a4 bd 2d c9 c6 bd d2 8e cd bd
       0.054040704 -0.08020736 -0.0970634 -0.100370064

actor.2.bias f4 [128]
000000 c1 74 2b be 5e 9d 95 be 38 0d b1 3c 68 73 0c be
       -0.16743757 -0.29221624 0.021612749 -0.13715899
000010 a7 b9 98 bd d1 ff 87 3b 4b fb cb bc 20 2b 90 be
       -0.074572854 0.0041503687 -0.0249001 -0.28157902
000020 85 c0 df 3d c9 c1 39 be 47 7a 97 3d aa 25 eb bd
       0.10925392 -0.1814033 0.073963694 -0.11481793
000030 a4 c0 fa be bb 14 87 bd 26 bd 67 be 37 b9 9b bd
       -0.48975098 -0.06595751 -0.22630748 -0.07603686
000040 72 ac a6 bd 46 c3 a3 3d 14 e5 84 3d 9e 02 3e be
       -0.0813836 0.0799623 0.06489006 -0.18555686
000050 23 9f 11 3e 56 c0 da 3d 9b fb e8 bd ed 8b 32 be
       0.14220862 0.106812164 -0.11376115 -0.1743619
000060 5c 2d 1d be 06 47 c3 bd 92 61 67 bc 17 e7 21 bb
       -0.15349334 -0.09535031 -0.014122384 -0.002470439
000070 d8 2b 84 3c 67 12 9a 3e fb 9f 0b bc db d8 8e 3b
       0.016134188 0.30092165 -0.008522029 0.0043593473
000080 40 52 88 3d 9b d0 bc bd 74 fc 8d bb f4 4f 12 bc
       0.06656313 -0.09219476 -0.0043330733 -0.008930195
000090 f6 8b 0e be e4 1c 82 3c 7e 60 4d be bd a2 8f 3d
       -0.13920578 0.015882917 -0.2005634 0.07013462
0000a0 c6 64 27 be 91 70 24 3c e8 4f c8 bc 5a 36 79 bd
       -0.16347036 0.010036604 -0.024452165 -0.06084285
0000b0 0a 6a 31 be 9e 95 07 be f9 4b 45 3d 15 24 2a be
       -0.17325607 -0.13240668 0.048168156 -0.16615327
0000c0 44 18 fe bd 95 08 45 be db bf 9b bb 29 4d 0c be
       -0.12406972 -0.19241555 -0.0047530956 -0.1370131
0000d0 4b d0 ef bc 22 5a a3 ba dd 3f d6 be 3a a3 eb bc
       -0.029274127 -0.0012462775 -0.418456 -0.028764356
0000e0 62 1c 98 3c bd 65 f8 bd 8e d6 7e 3d 7a a4 8c bd
       0.018568221 -0.1212878 0.062216334 -0.06867309
0000f0 91 6e 80 bd 4f 66 21 be 3c 0d aa bd 41 0c f3 3d
       -0.06271089 -0.15761684 -0.083033055 0.118675716
000100 c3 1e be 3d 81 b4 13 be 2d f8 98 3d 1e 40 87 be
       0.09283211 -0.14424326 0.07469211 -0.26416105
000110 7d 07 13 3e 4d 8a 51 be f3 af 8b 3d e4 6f e4 bc
       0.14358325 -0.20462914 0.06820669 -0.027885385
000120 9e 4f d7 bd 6d 5b 92 3c 0e 87 14 bd 0e 38 de bd
       -0.10513233 0.01786586 -0.03626161 -0.10850535
000130 f6 ca 4d 3e 79 33 40 be a9 c9 af be 4a 48 d2 3c
       0.20096955 -0.18769635 -0.34333542 0.025669236
000140 97 22 78 be 63 a0 25 3e 8f 75 2f be 7d 23 fd 3d
       -0.24231945 0.16174464 -0.17134689 0.123602845
000150 a0 63 52 3c 51 60 b3 bd e4 83 12 be 75 89 60 bd
       0.012841135 -0.08758605 -0.14308125 -0.05481859
000160 d4 8b e8 bd 9d 85 ba bc 04 4a 17 be c6 a6 08 be
       -0.11354795 -0.02276879 -0.14774328 -0.13344869
000170 61 11 26 3e 10 1e 60 bc 6a a5 a8 3d a1 3f c2 bd
       0.16217567 -0.013679042 0.08234675 -0.094847925
000180 84 11 17 be ae a9 3f be 21 f4 b6 be 55 c2 3c bd
       -0.14752775 -0.18717071 -0.3573313 -0.046083767
000190 dd 29 3b bd c6 d5 06 bc 58 7a 48 be 40 5b a2 be
       -0.04569422 -0.0082296785 -0.1957792 -0.31710243
0001a0 db 60 ec 3d f2 5b a0 b9 9b 4d 07 be 83 95 12 be
       0.11541911 -0.00030586083 -0.13213198 -0.14314847
0001b0 97 31 08 bd b5 25 86 3b 97 9c d2 be c8 d2 21 bd
       -0.033250418 0.0040938505 -0.41135094 -0.039507657
0001c0 7f b8 10 3e 93 16 03 be b4 d4 4c 3d 82 4b 14 be
       0.1413288 -0.1280158 0.050007537 -0.14481929
0001d0 ca d1 70 bb 4a b6 6d be 6c 27 db bd 2f 40 10 bd
       -0.0036746138 -0.23214069 -0.107008785 -0.03521746
0001e0 c5 6d 66 bd 06 8a a5 bd 78 5c 05 3d 88 6b a2 3c
       -0.056257028 -0.080829665 0.03255889 0.019826666
0001f0 f7 2e d6 bd df 5c 76 be 36 7a 9f bc 1e f1 56 bd
       -0.104581766 -0.24058865 -0.019467454 -0.05247604

actor.4.weight f4 [128, 128]
000000 62 37 43 3d 85 25 9b bd bf 2c 4e bd 24 13 d3 3d
       0.04766024 -0.07575516 -0.050335642 0.10306385
000010 db d1 aa bc 38 90 48 3d 7b 49 86 3d b4 ba db 3c
       -0.02085202 0.048965663 0.06556984 0.026822425
000020 a2 03 4a bd b1 4b 85 bd 09 fe 70 bc a9 1b eb 3c
       -0.04931987 -0.065085776 -0.014709004 0.028699713
000030 83 80 00 3e e6 3f 40 3d 6c 0a 46 3d de 80 02 3e
       0.12549023 0.04693594 0.048349783 0.12744471
000040 8c ef 63 3c 24 97 c1 3c 7b ca 01 3e ab 75 ef 3d
       0.013912093 0.02363164 0.12674896 0.11692365
000050 43 42 e6 bd 15 eb 61 3d 8b 89 fe bc 5e de 26 be
       -0.11243107 0.055155832 -0.031071445 -0.16295764
000060 87 0f 9e 3c f3 d4 af bd a2 e2 cd 3d c4 4d d8 bd
       0.019294513 -0.08585539 0.100529924 -0.105617076
000070 ab 32 47 bd ea 65 f4 3c 96 8e 10 3d 85 97 1d bb
       -0.048632305 0.029833753 0.03529223 -0.0024046612
000080 d8 11 d4 bd 0f 50 ba 3c d8 33 f2 bc 03 0f 7d 3d
       -0.10354966 0.022743253 -0.029565737 0.061781894
000090 5a 40 db 3d 1e 1b ae 3d 86 17 0d 3c b0 8f b2 bd
       0.107056335 0.08501266 0.008611565 -0.087188125
0000a0 22 1f e9 3c 99 8f 06 3d 22 3a bc bd 71 13 ee bd
       0.028457228 0.03285179 -0.091907755 -0.11624802
0000b0 3e a5 2f 3d a8 c4 85 bd c4 88 92 bb c7 15 15 be
       0.042882197 -0.0653165 -0.00447187 -0.14559089
0000c0 f4 30 8a bd 54 3f 09 bd 0e eb 9c 3b a7 32 1c 3e
       -0.06747618 -0.03350766 0.004788763 0.15253697
0000d0 15 15 20 3d 02 43 83 3d 02 85 8c 3d b3 5c 1e 3e
       0.039082605 0.06409265 0.06861307 0.1546505
0000e0 b8 09 0f 3d d3 15 c2 bd a8 df 0c 3d af 35 94 3d
       0.034921378 -0.09476819 0.034392983 0.07236802
0000f0 10 c3 fc 3b ac 66 ae bd 22 90 81 bc bf 29 cb 3d
       0.007713683 -0.08515677 -0.015815798 0.09920072
000100 58 4f 95 bd 41 7c 8f bd 85 62 eb 3d 19 db 41 3e
       -0.07290524 -0.070061214 0.114934005 0.18931235
000110 d5 f3 8f bd 72 34 0c 3d 07 46 10 3e de 53 de bd
       -0.07028929 0.034229703 0.14089213 -0.1085584
000120 d2 3f a4 bd 99 a3 de 3c a2 11 b9 3d 36 52 e2 bd
       -0.08019985 0.027177619 0.09036566 -0.11050837
000130 4c a6 88 3c 63 e9 03 be b4 5e e9 bd 0f ec 68 3e
       0.016680859 -0.12881999 -0.11395016 0.22746299
000140 78 6b f9 bc 46 24 16 be a7 3c c6 3d 63 bc 0a bd
       -0.030446753 -0.14662275 0.09679537 -0.033871066
000150 0a bc bc 3c 2e f6 55 3b 13 0d 57 3d 74 b3 be 3d
       0.023038883 0.0032647955 0.052502703 0.09311572
000160 c8 85 06 bd 58 d0 fe 3b f5 7b 6f be ac 99 67 bc
       -0.032842427 0.0077763014 -0.2338713 -0.014135759
000170 de 05 aa 3b b4 5b 96 bd 00 60 9a 3c 61 d5 19 bd
       0.0051886877 -0.0734171 0.018844604 -0.03755701
000180 40 b0 c1 bd 9f 1e 4f bc 2b 6d fb 3d 16 9e bd 3c
       -0.09457445 -0.012641578 0.122766815 0.02314667
000190 e9 ab ea 3b 9a 9b 14 be 6c 54 75 3d 2a 5f 60 bd
       0.0071616066 -0.14512482 0.059894964 -0.054778256
0001a0 f6 2e cc 3c 7f b9 9a bd 71 4f 9f 3d fc 9b 67 3c
       0.024924736 -0.07554912 0.07778824 0.014136311
0001b0 24 bb 80 3c bc ac 87 3d 12 3a 1b bc bb b7 74 bd
       0.015714236 0.06624743 -0.009474294 -0.05974553
0001c0 83 09 ca 3d d5 b1 f9 3d 16 5f 1e 3e 12 da 07 bd
       0.098650955 0.12192122 0.1546596 -0.033166952
0001d0 8f 53 15 be 87 69 40 bc be c1 a3 bd b5 21 7c bc
       -0.14582656 -0.01174391 -0.07995938 -0.015388896
0001e0 7f db c0 3d 78 dc 61 bd fb 77 ec 3d 4d d2 fd 3c
       0.094168656 -0.055141896 0.11546322 0.030984068
0001f0 46 78 01 3d 8b 43 85 3d 7a 47 b4 bd b3 b9 e6 bc
       0.031608842 0.065070234 -0.088026956 -0.02816472
000200 d0 bd de bd e8 05 d4 bc 95 d5 09 3d bd a6 60 3d
       -0.108760476 -0.025881723 0.033650953 0.054846514
000210 55 fd 74 3d a5 b8 04 3e bc d2 5d bb 66 df a8 bc
       0.05981191 0.12961061 -0.0033847531 -0.020614337
000220 c3 09 dd 3c 69 30 a2 3c 32 3d 27 be 98 c0 ba 3d
       0.026982194 0.019798474 -0.16331938 0.091187656
000230 5b 17 31 be 4b 1b ea bd 09 6f b6 bc 5e c2 62 bd
       -0.17294066 -0.11430987 -0.022269743 -0.055361144
000240 93 41 ca bd 5e 6a 44 bd d8 0c da bd d3 4d 23 3d
       -0.098757885 -0.047953002 -0.10646981 0.03986914
000250 d6 b3 38 3d 18 33 b9 bc 89 4d 9d 3d 4c 80 cc bb
       0.04509338 -0.022607371 0.07680804 -0.00624088
000260 a9 2b ca 3c 10 f2 01 bd 39 45 6f bd 23 df 8e 3d
       0.024679022 -0.03172499 -0.058415625 0.06976154
000270 a5 cf 96 be 57 9f 97 3d 40 5f f1 bc 03 f6 ce bc
       -0.29455295 0.074034385 -0.029464364 -0.025263792
000280 8e 7f 21 3e bb 39 83 3c 4e b9 fb bb 94 2a 95 bb
       0.15771315 0.016018739 -0.007682002 -0.004552195
000290 6f 3b 00 be 88 ef 36 be d5 e6 c1 bd 3f 58 65 bd
       -0.12522672 -0.17864811 -0.09467856 -0.05599236
0002a0 74 1c 26 bd 52 f5 23 be 64 66 1a 3e 87 d7 fd 3b
       -0.04055448 -0.16011551 0.15078121 0.00774664
0002b0 3d 89 a6 bd 4b 86 fa bd 36 21 9d bd c9 f7 75 3d
       -0.08131645 -0.122326456 -0.0767235 0.06005076
0002c0 54 f4 ac 3d 1e 80 6f bd c7 0d b8 bc 91 9b 31 3e
       0.084450394 -0.05847179 -0.022467507 0.173445
0002d0 a6 d8 3f 3e 98 2d 62 bd 58 3b 40 3b 4b 23 d3 bc
       0.18734989 -0.055219263 0.0029332247 -0.025773665
0002e0 dd 9d 27 bc cc cf 8a 3d 37 5b 0e 3d 59 17 a1 3c
       -0.010230509 0.06777915 0.034754958 0.019664453
0002f0 74 a7 25 be 78 fc 3c 3d c5 0e 60 bd fe 7c 91 3c
       -0.1617716 0.04613921 -0.054701585 0.017759796
000300 5e 70 63 3d 4e 70 e2 3c 2e b2 bd 3c e4 d7 ce 3d
       0.055527084 0.027641442 0.023156252 0.100997716
000310 cf eb b3 bd ea 42 b3 3c 9f 13 86 bd ab ef ae 3d
       -0.08785211 0.021882493 -0.06546711 0.08541807
000320 fc a9 e5 bd d1 63 3d 3d da 8e 26 bd ab 29 78 bd
       -0.112140626 0.04623777 -0.040663578 -0.060586613
000330 af 80 17 be 5d 10 0e be e6 57 80 3d ad c5 25 be
       -0.14795183 -0.1387343 0.06266765 -0.16188689
000340 b5 6d a3 3d b9 60 c6 bd 83 e3 38 bc d3 4a 17 bd
       0.07979909 -0.09686417 -0.011284712 -0.036936592
000350 cf 0e d3 bd 19 06 af bb 91 4f 90 bd fa 70 fe bd
       -0.10305559 -0.005341303 -0.07046426 -0.12423892
000360 6b 30 79 3d f7 ab 5e 3c b4 de 02 3b e2 45 8b 3c
       0.06083719 0.013590804 0.0019969167 0.017001096
000370 5f 1c 49 3d b2 46 a1 3c e5 d5 99 bd ce 2c 3c be
       0.049099322 0.01968703 -0.075115 -0.18376467
000380 84 ba 17 3e 44 91 47 3e 75 7f 45 3e fa c3 49 be
       0.14817244 0.19489008 0.19286902 -0.19703665
000390 39 3a 1d be 55 5d c0 3d 7e dc 28 be fa af 09 be
       -0.15354241 0.09392802 -0.16490361 -0.13446036
0003a0 10 30 ee 3b f6 e6 9b 3b 51 97 ed bb 2a f7 11 bb
       0.007268913 0.0047577573 -0.0072507043 -0.0022272565
0003b0 08 4d 20 be 9e c9 1b 3e 29 f0 83 bc 3a aa 5f bd
       -0.15654385 0.1521363 -0.016105728 -0.0546057
0003c0 03 c6 13 3e e2 ab e1 ba 50 27 8d 3d f6 e0 e9 3d
       0.14431004 -0.0017217363 0.06892264 0.11419861
0003d0 c4 3f 63 bb 45 24 48 bd 16 f2 73 bd 8c b7 27 3e
       -0.0034675458 -0.048862714 -0.059557043 0.16378611
0003e0 e9 c2 0d bd 9f 27 6d bd b3 c3 46 be 54 fe 92 bd
       -0.03460971 -0.057899114 -0.19410591 -0.071774155
0003f0 b3 15 21 bd 5f b2 d7 3d a1 01 cb bd b3 88 f2 bd
       -0.039327335 0.105320685 -0.0991242 -0.118424796

actor.4.bias f4 [128]
000000 21 81 2e be cb 4f 23 be 62 1c c2 3b fc ab 72 3d
       -0.17041446 -0.15948407 0.0059237937 0.05924605
000010 6c 06 cf bc 95 0e 5d be 19 2c ae bd 93 ca 2a bd
       -0.025271617 -0.21587594 -0.08504505 -0.041697096
000020 5b bd 24 3d f7 38 75 be 06 72 fc bd cd 63 33 3e
       0.040219646 -0.23947512 -0.12326436 0.1751854
000030 98 d3 59 be e9 28 d8 bd 52 2a cd 3d fe c2 eb bc
       -0.21272123 -0.10554678 0.100178376 -0.028779503
000040 4d e1 fc bd 02 33 cd bd 75 6f 51 3d 31 0b 19 be
       -0.1234766 -0.100194946 0.051131684 -0.14945675
000050 d6 76 cb be a7 d0 65 bc 66 f5 d4 bd 2c cb d0 3d
       -0.39739102 -0.014026797 -0.103983685 0.10195002
000060 47 31 6f be 8d f9 88 be 0f fc 95 be 87 87 82 3d
       -0.23358642 -0.26752892 -0.29293868 0.06373506
000070 11 10 15 be 80 40 ae bd c1 b4 33 be 6f 8d 57 bd
       -0.1455691 -0.08508396 -0.17549421 -0.052625116
000080 ba 5f 5d bd dc 86 96 bd 5e cd 92 bd bc 30 be bd
       -0.05404637 -0.07349941 -0.07168077 -0.09286639
000090 8a c2 7c bd 0e be 59 be 0d 89 da bc 07 bd 94 bd
       -0.061708964 -0.21263906 -0.026676679 -0.072626166
0000a0 ce f8 ec bd 5b 20 ed 3d 17 9c ba bc c6 a0 fe bd
       -0.11570893 0.11578437 -0.022779508 -0.12433009
0000b0 2e fe 3b be 36 c7 ec bd 4d 56 29 3e 93 74 23 be
       -0.1835868 -0.11561434 0.16536827 -0.15962438
0000c0 d0 e8 90 bb 36 10 bf bd b2 45 02 3e 6d c2 18 3d
       -0.0044222847 -0.09329264 0.12721899 0.037294794
0000d0 49 20 ff 3c 17 02 1e be 99 08 e6 bd 7c 9b a2 bd
       0.031143324 -0.15430485 -0.112321086 -0.079398125
0000e0 79 69 da bd 45 d4 97 bd a3 dd a1 3b b5 cc 63 be
       -0.106646486 -0.07413534 0.0049397512 -0.22246058
0000f0 f4 1f da bd df d0 2a be a0 a1 e4 bd 17 70 cd 3d
       -0.10650626 -0.1668124 -0.1116364 0.10031145
000100 43 26 da bd 86 10 f7 3d c0 fe 7f be e8 a2 52 3d
       -0.10651829 0.120636985 -0.24999523 0.05142489
000110 6e e6 c8 bd 27 9d 89 be a5 d8 f4 bd 2c ff 36 be
       -0.09809576 -0.2687771 -0.11955384 -0.17870778
000120 5b 3a 48 3d e7 dc 46 3d 5c 56 85 bd d7 bf f5 bc
       0.048883777 0.048550513 -0.06510612 -0.029998703
000130 ff 17 b5 bc cf e4 da 3d 76 8f 45 be 64 44 cd bb
       -0.022106169 0.10688173 -0.19293007 -0.0062642563
000140 00 c7 1d be f8 cb 31 be 58 66 12 be 1a 19 c3 bd
       -0.15407944 -0.17362964 -0.14296854 -0.09526272
000150 4b 27 4d be 1e 9c b6 3c 89 52 61 bd b1 4c eb bd
       -0.2003452 0.02229124 -0.055010352 -0.11489237
000160 ae 76 f8 bd 94 9d 44 bc 2f 4f 6d bd 75 59 22 3d
       -0.12132011 -0.01200046 -0.057936843 0.039636094
000170 4d 68 0d 3e ed 3b ba 3c 22 48 62 be 6b 0d f5 3c
       0.13809319 0.022733653 -0.22097829 0.029913625
000180 6a 4e 0e be 5e cb 69 bd 0d f5 9c 3d 1a c4 d9 bc
       -0.138971 -0.05707871 0.07663927 -0.026582766
000190 4e 2e df bd d7 0e 9a be 06 09 04 be 7c 21 af 3d
       -0.10897504 -0.30089447 -0.12894067 0.085513085
0001a0 fe f9 78 be bb ac f4 3c bb 1c 1b 3d 9a e4 6d 3d
       -0.24314114 0.02986752 0.037869196 0.05807934
0001b0 56 cd e5 3d df 7d 7a bd a1 ea 06 be 2f 6c e0 bc
       0.11220805 -0.061155196 -0.13175441 -0.027395336
0001c0 0e ce 6d be 22 86 d7 bd c0 7b 81 be e4 b7 b7 3d
       -0.23223135 -0.10523631 -0.25289726 0.08970621
0001d0 f9 d8 b2 3d 0d 37 64 3d e5 d4 c9 be e9 32 50 3e
       0.087327905 0.055716563 -0.39420238 0.2033192
0001e0 89 4e 8f be ba 07 b3 be df f1 ed 3c 1c 67 98 be
       -0.27989605 -0.34966832 0.029045997 -0.29766166
0001f0 37 dd 64 be 5e 63 2d bd 75 f1 ed 3d 54 5b 9b be
       -0.22350012 -0.042331092 0.1161832 -0.30343115

actor.6.weight f4 [27, 128]
000000 4e a2 94 3b 9a 9d bc bc a8 5d 29 3c 8b 07 ef 3b
       0.00453595 -0.023024369 0.010337271 0.0072946004
000010 67 f5 a9 bb 0c f0 d5 3b ec 56 99 bc 28 35 67 bc
       -0.005186725 0.00652886 -0.018718205 -0.0141117945
000020 ae 82 ae 3c 28 22 5b bb 7d 92 13 bb fc 9c 3d 3c
       0.021302547 -0.0033437107 -0.0022517734 0.0115730725
000030 1b ce 84 bc 8a ae e9 bb 1b c9 18 bc 90 de d1 3c
       -0.01621156 -0.0071314024 -0.009325291 0.025618821
000040 97 05 22 3c 0b e0 7d bb c6 2d 29 bc 75 56 d5 3c
       0.009889028 -0.0038738276 -0.010325855 0.026042202
000050 37 6a 02 3d 40 1f 8d b9 3c 3b a2 bd e2 b6 68 bc
       0.031839576 -0.000269169 -0.07921454 -0.014203759
000060 e7 b5 e9 3c af 1a 0c bd 5d 51 81 bc ba 7e 75 bc
       0.02852912 -0.034205135 -0.015785867 -0.014983827
000070 5a f4 c0 bc 75 67 e4 bc 9e f2 1e 3c a9 3a ea 3c
       -0.023554016 -0.027881363 0.009701399 0.028592424
000080 24 10 ae bb d2 b9 bf bc 1f 92 a5 3b 9a b0 18 bb
       -0.0053119827 -0.023404036 0.0050528194 -0.0023298622
000090 51 aa 27 ba 08 10 46 3d a9 92 b9 39 66 46 93 ba
       -0.00063959236 0.048355132 0.0003539522 -0.001123619
0000a0 a8 d9 4f 3c cb 56 79 bc ee b7 3a ba fe ab 66 3c
       0.012686171 -0.015218447 -0.00071227446 0.014079092
0000b0 8a 4a 20 bd 28 df 2d 3c 80 7c 97 bc a3 c8 9e bb
       -0.039133586 0.010612287 -0.018491983 -0.004845695
0000c0 92 48 54 bc fa ed 26 3c e7 ed ac 3c 64 72 b1 3b
       -0.012956755 0.010188574 0.021109534 0.0054152478
0000d0 51 73 86 3c 28 43 9c 3a d2 2c 13 3d ff 5b c3 bc
       0.016412409 0.001192187 0.035931416 -0.023847578
0000e0 88 d6 f9 3b 82 80 d4 bc cc 50 b6 bc 7f aa 2e 3d
       0.007624451 -0.025940184 -0.022255324 0.042643066
0000f0 96 ad d6 3b f1 35 07 bc f2 b0 9c 3c 59 b0 bc bc
       0.006551455 -0.008252607 0.019127343 -0.023033308
000100 ac df 44 bc 43 ea 41 bc 2c 59 c1 b9 36 0b 43 b8
       -0.012016218 -0.0118356375 -0.00036878267 -4.6502064e-05
000110 98 7c cf 3c d1 99 33 3a 09 af 32 3c 80 4c b8 3c
       0.025327966 0.00068512285 0.010905989 0.022497416
000120 5e 86 ba bc 6f 55 a6 3b fb ed 78 38 26 fa 0d 3c
       -0.02276915 0.0050761024 5.9349444e-05 0.008665597
000130 53 36 98 bc 5a 49 81 3a 76 f7 07 bd d4 3f 80 ba
       -0.018580591 0.0009863779 -0.03319498 -0.0009784647
000140 8f 7d 6b 3c 3c f5 64 bc 75 ed da bc dd cb 86 3b
       0.014373197 -0.013974484 -0.026724556 0.004113658
000150 6d d2 8e 3c 64 c2 9a 3c 46 27 8c bb b9 0b f0 3a
       0.017434323 0.01889152 -0.0042771427 0.001831404
000160 70 82 23 bc 4e 82 18 bc 11 99 40 3c 3f 97 9a bc
       -0.009979829 -0.009308411 0.011755244 -0.018870948
000170 95 cc 56 bb 92 00 f5 3c b7 07 fa 3a 43 96 50 bb
       -0.003277575 0.029907499 0.0019075786 -0.0031827844
000180 73 a5 55 3c 81 f8 5b bb 18 69 2c 3a 14 f0 ba 3b
       0.013039934 -0.0033564868 0.00065769395 0.005704889
000190 5d 48 4e 3c 5f eb 9e 3c bb d6 e6 3b 62 2c 15 3c
       0.012590495 0.019399343 0.007044641 0.00910482
0001a0 bc 9e 30 bc 5a fa 5a 3b 0a 4f 40 bb c1 e3 9b bc
       -0.010780033 0.0033413381 -0.0029343986 -0.0190295
0001b0 90 2b 00 bc 6c 08 03 3d 3f 87 ba bc 61 64 de 3c
       -0.007822886 0.031990454 -0.022769568 0.027147474
0001c0 5d b3 57 bc 95 f9 58 bc ab 79 be bc 15 23 58 bc
       -0.013165322 -0.013243099 -0.023251375 -0.013191958
0001d0 0c fb 08 3c b8 d8 78 bc 30 e0 6a 3c 18 49 3a 3c
       0.0083606355 -0.0151883885 0.014335677 0.011369966
0001e0 9a a3 ad bc 11 72 eb 3c d2 a7 16 3c cb ec 1c 3c
       -0.021196175 0.028740915 0.009195285 0.00957794
0001f0 75 f2 b3 bc c6 c3 b0 3c 0e b5 32 3c ec 40 40 3d
       -0.021966198 0.021577727 0.010907425 0.046936914
000200 a4 5e 27 bc f0 0d be 3c 01 db bf 3a 7b ef 86 bb
       -0.010215435 0.023200005 0.0014637412 -0.0041179038
000210 13 99 49 b9 4c 03 89 bc 0b 92 1d 3b 21 14 45 3c
       -0.00019225878 -0.016725205 0.0024043347 0.012028725
000220 bc de 3e bd 67 3c 4d 3b 54 25 3d bb 96 d7 05 3c
       -0.046599135 0.003131652 -0.002886136 0.0081690755
000230 24 61 93 bb 75 e3 22 3c 07 98 40 3c 55 84 a7 bc
       -0.004497664 0.009941925 0.011754996 -0.020448843
000240 8f 63 0e bc ff 49 10 bb d8 98 06 3c b8 30 a9 3a
       -0.008690729 -0.0022016761 0.008215152 0.0012908196
000250 9f 10 92 bb b5 ae f5 bb 2b 8f 94 bc 33 66 26 bd
       -0.004457548 -0.0074976333 -0.018134674 -0.04062481
000260 eb 6c 6d bc d6 30 ce 39 0f 79 bc bc b7 03 c7 3a
       -0.0144913 0.00039327767 -0.023006944 0.0015183602
000270 4d a4 34 bd 96 f4 24 bc 16 11 8c 3b bc 77 71 bc
       -0.044102002 -0.010068079 0.0042744977 -0.01473802
000280 e7 2c 60 3c 61 f4 1e bc d6 46 ef 3b 93 20 2b 3c
       0.013682581 -0.009701819 0.0073021455 0.010444778
000290 2c c7 13 bc 38 38 07 bd 4e 1c c9 bb 7d bd 0b bc
       -0.009019654 -0.0330126 -0.0061374074 -0.008529064
0002a0 90 fc 39 3b 30 08 13 3d 8c f5 d5 3b ec 12 99 3b
       0.0028379299 0.03589648 0.0065295156 0.004671445
0002b0 16 5d 1e 3d 85 85 14 bb 4d af c3 3b de 30 30 bb
       0.038662992 -0.0022662592 0.005971825 -0.0026884596
0002c0 cb d1 52 bb 7a 47 12 bd 74 c0 9b 3a 0f 9b 90 bb
       -0.0032168503 -0.035712697 0.0011882917 -0.0044130157
0002d0 af 1a 7d bb 7a ee 59 3c e9 a2 07 bd c4 61 9c 3c
       -0.003862064 0.013301486 -0.033114348 0.019089587
0002e0 dc 8a 19 3c 1c 1b 51 bc 6e 01 4b 3c 50 29 fe 3a
       0.009371486 -0.012762811 0.012390478 0.0019390974
0002f0 15 0c 86 bb dc 9f 47 bb 96 80 d6 39 62 7a 2d 3c
       -0.0040907958 -0.0030460274 0.00040913065 0.01058826
000300 e9 71 c6 bb e7 75 b0 bb e7 62 f7 bc 48 76 e8 3b
       -0.0060560596 -0.005385149 -0.030198528 0.0070941783
000310 c3 b4 8f bc e8 af 1d 3d e8 c1 85 3b b9 a6 7a bc
       -0.017542249 0.038497835 0.0040819533 -0.015298539
000320 0c b7 f0 3b 01 41 47 3b bc 18 03 3c 02 b0 00 bc
       0.0073460396 0.0030403736 0.008001503 -0.0078544635
000330 fc e9 ed bb c9 96 d8 3b 94 0a e9 3c e4 a7 37 3c
       -0.007260559 0.006609772 0.028447427 0.011209462
000340 42 f5 a5 3b d5 5d 8e 3d 84 a0 92 bc 01 3b 2b 3c
       0.0050646374 0.06951491 -0.017898805 0.010451079
000350 17 8a d5 bb b1 13 3a 39 ee f2 7f bb 05 2e 5a 3c
       -0.0065167057 0.00017745678 -0.003905471 0.013316636
000360 d0 00 2e bc 5c ed af bb 7e f7 6a 3c 1d 33 4e 3b
       -0.010620311 -0.0053688716 0.014341233 0.0031463571
000370 ee 90 02 bc 91 83 55 bc e2 cb e7 bb 54 a8 53 bc
       -0.007969124 -0.013031856 -0.0070738653 -0.0129185505
000380 bb bc 9c bc 5a bc 03 3c 87 75 92 bc 44 6d 5b bc
       -0.019132962 0.008040512 -0.017878307 -0.01339275
000390 6f c5 d8 3b 50 01 20 bc bf 1a 46 bc fa c5 c0 bb
       0.006615333 -0.009765938 -0.012091338 -0.0058829756
0003a0 f8 6c 29 3c 9c ea 9a bb 7e af 02 bc 5b 7a b4 b9
       0.010340922 -0.0047276746 -0.007976411 -0.00034423437
0003b0 59 a2 59 3c 28 1a 98 bc 3d 81 83 bc a8 e5 5f 3a
       0.013283336 -0.01856716 -0.016052837 0.00085409964
0003c0 3d 31 b6 3c 5a b5 f7 3c c2 7b 07 bd 59 93 82 bc
       0.022240276 0.030237842 -0.03307701 -0.015939401
0003d0 8a 0e dd 3b d4 49 6b bc dc e5 8f bc 7b b9 e3 ba
       0.006746118 -0.014360864 -0.01756566 -0.0017374003
0003e0 de 70 3f bd 4f 95 00 3d dc d7 97 bc 87 84 b7 3b
       -0.046738498 0.03139239 -0.018535547 0.0056005153
0003f0 ff c7 b6 bc 39 0f 17 bc ff 08 f0 3a 4f bb 13 bc
       -0.022312162 -0.009219938 0.0018313228 -0.009016826

actor.6.bias f4 [27]
000000 e4 17 85 bc 1c 0c 4e bd 9f c2 5d bc f2 97 5a 3d
       -0.016246744 -0.050304517 -0.013535171 0.053367563
000010 02 ab 25 3e cb 71 d8 bd fe 3f b0 bd 73 44 9f 3d
       0.16178516 -0.10568579 -0.086059555 0.077767275
000020 84 56 11 bc 78 e2 94 bc 24 42 af 3d d5 05 f0 be
       -0.008870725 -0.018174395 0.08557537 -0.4687945
000030 91 cd b9 be dc 29 51 bd 60 0c 9a 3b 06 8b 0f 3e
       -0.36289647 -0.05106531 0.0047011822 0.14017877
000040 a8 3d e1 bc 4b 76 d0 bd 5e c9 89 bd 8d e8 62 3e
       -0.02749522 -0.101788126 -0.06727861 0.22159024
000050 b6 6a 97 3e e9 01 04 3d 5e 52 90 bd ce 62 f9 3c
       0.295736 0.032228384 -0.0704696 0.030442622
000060 72 2b f0 3b 14 86 4d 3d bc ab 00 3d
       0.007329398 0.050176695 0.03141378
